Backend/ML/ccp_policy.pt (torch, 541730 bytes, 24 tensors)

network.0.weight f4 [256, 10]
-0.04924702 0.07610189 0.08362302 -0.05581306 -0.11574568 -0.2767072 -0.18369398 -0.24510346
0.25556058 0.009514418 -0.32751316 -0.29385102 -0.28010285 0.23168166 0.17407863 -0.029186731
2.569622 -0.19631748 0.21494141 -0.022124115 -0.11683185 -0.35910004 -0.18365543 -0.26582897
0.19594617 -0.10289365 1.8487564 0.023343949 -0.16697028 -0.027869595 0.0032256062 -0.073617674
-0.25300843 0.21600184 -0.06150565 -0.11851552 -0.115827814 0.087604955 0.15568723 -0.30997658
-0.099118724 0.0585368 -0.20565091 -0.122309074 -0.19597296 0.140923 1.8431987 -0.0011633247
-0.15695639 0.16790006 -0.3118897 0.019732531 0.2658006 -0.29466766 0.25412843 -0.27106136
0.0036590495 -0.2505851 -0.2093727 -0.0719432 -0.2049085 -0.12414033 -0.16207387 -0.06286565
-0.2585681 0.070799425 -0.09222653 0.043207727 -0.27655217 0.25161657 -0.021875923 -0.2277312
0.29054725 0.024550283 -0.279617 0.0102536995 0.2938658 -0.17360072 0.2733271 -0.12604107
-0.041441377 0.12803215 -0.11574635 0.28216016 -0.46346575 0.19345872 -0.31157622 -0.053164728
0.47286367 -0.35796213 0.18276112 0.19082732 -0.22890116 0.25803894 0.173597 -0.09626255
0.26473942 -0.088084236 -0.21526112 -0.20577882 -0.3687096 -0.09177562 0.091679305 0.007145992
0.031240666 0.15749376 2.0522969 -0.016481118 -0.31974968 -0.09697735 0.14458372 -0.15065871
-0.2818028 -0.072183706 -0.14195034 -0.039303005 0.071645506 -0.028197609 0.1366755 -0.25731686
0.18598461 0.13859259 0.23266874 0.0816178 -0.13021326 -0.048150614 2.1462662 0.0072808536
-0.13698882 0.19323795 0.038203172 -0.21726525 0.23723768 0.11854786 0.0818171 -0.08356171
1.9038336 0.006522462 -0.118168525 -0.17011479 -0.11440901 -0.3003759 -0.06709065 -0.22825247
0.2976558 -0.0610016 0.048030376 -0.1409986 -0.22744232 -0.19386965 0.27960604 -0.14920092
0.057755042 0.01123939 0.029923394 -0.14513975 1.5870013 0.0088480245 -0.098579764 0.23716772
-0.01506253 0.2830354 0.22247045 0.104496576 -0.013737725 -0.025669456 1.8885248 0.0028234445
-0.11101966 -0.1902836 0.178994 -0.04412977 0.15958227 -0.0820864 -0.16676119 0.11177719
2.3189101 0.008860439 -0.0641297 0.27259827 0.123582974 -0.14487869 -0.07645173 0.10531425
0.03520795 -0.072915815 1.7757782 0.009894291 -0.115641825 -0.021924848 -0.3181465 -0.11007622
0.027139746 0.14677988 0.036226116 0.04822227 2.1983118 -0.01826126 -0.19008099 -0.24205706
-0.2067617 -0.17241548 0.057093598 -0.11467598 -0.29799747 -0.15763056 0.031444136 -0.18878372
0.057901677 -0.22296287 -0.18353945 0.16117671 0.029006269 -0.06594542 0.18040878 -0.13885087
1.811229 -0.0049710297 -0.14272209 -0.06961802 0.20142588 -0.047989964 -0.26248816 0.20552942
-0.31460562 -0.13918336 -0.05972061 -0.13116616 -0.007074009 -0.13885008 -0.22281826 -0.28134567
0.035998195 -0.095871665 -0.037358616 -0.03753847 -0.22671443 0.03773521 -0.13519107 0.05649063
-0.12704898 0.024359835 -0.040915806 -0.2950152 0.02187453 -0.19894186 -0.30438226 0.0690822
0.009247371 -0.16751099 -0.03172634 -0.22912128 -0.28223518 0.14382234 0.15635256 0.042664424
00000000: 3eb7 49bd 4fdb 9b3d 8c42 ab3d 3c9c 64bd
00000010: 120c edbd 91ac 8dbe 461a 3cbe 67fc 7abe
00000020: d6d8 823e 5de2 1b3c ceaf a7be a473 96be
00000030: a469 8fbe f53d 6d3e ab41 323e 0319 efbc
00000040: b074 2440 7307 49be 9a19 5c3e a23d b5bc
00000050: 8945 efbd f6db b7be 2b10 3cbe bc1a 88be
00000060: 1da6 483e e8b9 d2bd 0da4 ec3f cf3b bf3c
00000070: 42fa 2abe c74e e4bc b164 533b ddc4 96bd
00000080: 528a 81be 962f 5d3e 59ed 7bbd 44b8 f2bd
00000090: 2237 edbd 3a6a b33d 796c 1f3e 40b5 9ebe
000000a0: c2fe cabd 49c4 6f3d 2796 52be 2e7d fabd
000000b0: 23ad 48be 1e4e 103e efed eb3f b37a 98ba
000000c0: 2db9 20be feed 2b3e 02b0 9fbe 1ea6 a13c
000000d0: 0417 883e aede 96be 1f1d 823e 8ec8 8abe
000000e0: aacc 6f3b b14c 80be cc65 56be f556 93bd
000000f0: 89d3 51be 493d febd b1f6 25be b5bf 80bd
00000100: 0a63 84be 4aff 903d 43e1 bcbd 96fa 303d
00000110: 3f98 8dbe e3d3 803e 2335 b3bc 5e32 69be
00000120: 9cc2 943e ad1d c93c f629 8fbe 22ff 273c
00000130: 9475 963e 63c4 31be 88f1 8b3e e910 01be
00000140: 6fbe 29bd dc1a 033e 6c0c edbd 4c77 903e
00000150: 624b edbe 0b1a 463e eb86 9fbe 42c3 59bd
00000160: 301b f23e d046 b7be bb25 3b3e 3d68 433e
00000170: 1165 6abe ae1d 843e 69c3 313e 4d25 c5bd
00000180: ed8b 873e 8265 b4bd 696d 5cbe afb7 52be
00000190: 81c7 bcbe dbf4 bbbd 5cc2 bb3d ed28 ea3b
000001a0: 6dec ff3c 0b46 213e d558 0340 6903 87bc
000001b0: 3bb6 a3be 109c c6bd c10d 143e 4746 1abe
000001c0: 7548 90be 0dd5 93bd 6e5b 11be 30fc 20bd
000001d0: e1ba 923d acfe e6bc aaf4 0b3e 09bf 83be
000001e0: c072 3e3e 37eb 0d3e b740 6e3e 3c27 a73d
000001f0: a056 05be 9439 45bd 6d5c 0940 3a94 ee3b
00000200: cc46 0cbe 2be0 453e ee7a 1c3d c87a 5ebe
00000210: 6fee 723e 38c9 f23d b98f a73d 6722 abbd
00000220: d2b0 f33f 60ba d53b 5702 f2bd 9232 2ebe
00000230: 454f eabd dfca 99be d366 89bd 04bb 69be
00000240: 5766 983e d0dc 79bd 80bb 443d f061 10be
00000250: a4e6 68be c485 46be 8628 8f3e 20c8 18be
00000260: 8d90 6c3d 6b25 383c e821 f53c 849f 14be
00000270: dc22 cb3f 4ef7 103c 30e4 c9bd 18dc 723e
00000280: d4c8 76bc 04ea 903e 4bcf 633e 4d02 d63d
00000290: 3214 61bc c048 d2bc 2ebb f13f 8a09 393b
000002a0: 475e e3bd b4d9 42be 344a 373e 6bc1 34bd
000002b0: 8969 233e ea1c a8bd 72c3 2abe 70eb e43d
000002c0: 0669 1440 602b 113c 6f56 83bd 0092 8b3e
000002d0: 1219 fd3d 145b 14be ba92 9cbd ffae d73d
000002e0: 3636 103d e354 95bd b34c e33f aa1b 223c
000002f0: 9fd5 ecbd bd9b b3bc 19e4 a2be a46f e1bd
00000300: 2c54 de3c 774d 163e d661 143d b784 453d
00000310: 24b1 0c40 a398 95bc 97a4 42be cedd 77be
00000320: 57b9 53be af8d 30be fada 693d 3ddb eabd
00000330: 2093 98be e869 21be 91cb 003d 8550 41be
00000340: 4f2a 6d3d 6150 64be c4f1 3bbe 820b 253e
00000350: 8e9e ed3c 640e 87bd 14bd 383e ec2e 0ebe
00000360: 5ad6 e73f 05e4 a2bb bd25 12be e493 8ebd
00000370: 9642 4e3e 2091 44bd d964 86be 4e76 523e
00000380: fd13 a1be 1586 0ebe 999d 74bd 6c50 06be
00000390: 17cd e7bb b72e 0ebe 782a 64be 8a0c 90be
000003a0: d872 133d 5d58 c4bd 5905 19bd f0c1 19bd
000003b0: d427 68be 3c90 1a3d 876f 0abe b862 673d
000003c0: 2119 02be 478e c73c 5597 27bd 3b0c 97be
000003d0: 3732 b33c 6ab7 4bbe fed7 9bbe f87a 8d3d
000003e0: 4982 173c 0088 2bbe 7bf3 01bd c59e 6abe
000003f0: 2181 90be 2a46 133e e31a 203e e4c0 2e3d

network.0.bias f4 [256]
-0.02046156 0.15072122 0.1296438 -0.035568595 0.004981857 -0.21956928 0.019830206 -0.24381278
0.20871046 -0.19216253 -0.11512878 -0.15013348 0.24415885 0.16605313 -0.28525767 0.17830925
0.15698738 -0.1956525 0.05466191 0.18427894 -0.20120588 0.2381454 0.071131386 -0.15824266
0.15677936 -0.23495021 -0.113761306 -0.1401717 -0.11162015 -0.13916658 0.0788127 0.049730692
-0.19497222 0.13881078 0.11987564 -0.26382083 -0.32975927 -0.1411576 -0.062418893 -0.2704521
0.07228809 0.27256677 -0.29292956 0.11624753 -0.21757653 0.2621638 -0.08787469 -0.29946074
-0.1553652 0.26658946 -0.0054351157 0.26467782 0.04909774 -0.19786337 -0.17409444 -0.11653905
0.15541685 0.10855877 0.26551035 0.0076187714 -0.3126948 0.032838445 -0.33327803 -0.14874665
0.043645617 -0.1943786 -0.25255874 -0.25521067 0.103730604 0.029803429 -0.0030145487 -0.0057950728
0.11868187 -0.19995914 0.2027539 -0.3051733 0.26456925 -0.19143398 0.09882157 0.2488975
0.28177795 0.15256026 0.121929236 -0.08723442 -0.13718805 0.23742175 -0.29325724 0.23695734
-0.029534811 0.25096792 0.19054838 -0.15622471 -0.17381062 -0.13910352 -0.20993608 0.24839969
0.18773696 -0.28117493 -0.14872488 0.20431662 0.2082819 -0.11973291 0.0031385631 -0.1408296
-0.20572634 0.010932637 -0.080746755 0.13842167 0.07449112 -0.29649726 -0.13280645 -0.12562624
0.049103316 -0.03068735 0.10401065 0.11302017 0.019847766 -0.05570195 0.030267231 -0.008446398
0.3034594 -0.21288401 0.07396724 0.2822399 -0.3113528 0.07294327 0.1778216 0.038639408
-0.15555012 0.083197914 -0.073779695 0.22340626 0.1448949 0.03149354 0.16628692 -0.21927339
0.07639432 0.12309828 -0.036964696 0.0979845 0.26724514 -0.3032247 0.0741661 0.1765609
-0.115700044 0.18972784 0.20203266 0.0038217502 0.24718006 0.029597118 0.17585039 -0.03055806
-0.012870352 0.12252357 0.04770701 -0.0018583254 0.21147132 0.12551753 -0.29313654 0.24049233
-0.20056404 -0.32587847 0.20450012 -0.13992886 0.32104987 0.045382455 -0.2342612 -0.22016576
-0.079182826 0.14756626 -0.20519125 0.085406564 0.17248036 -0.08250195 -0.24322063 0.019603873
-0.026814796 0.0075099193 -0.10628467 0.18774143 -0.22977933 -0.16584441 0.026805153 -0.15527365
-0.261337 0.01264137 0.3076533 0.11540072 0.13521065 0.2688735 -0.05139324 0.093226075
0.16315182 0.07917306 -0.35525143 0.29850528 0.32964894 -0.033909094 -0.17909662 0.24569868
-0.12577516 -0.05255571 -0.14421663 -0.16739579 -0.36305383 0.31059864 0.21148555 -0.0071064285
-0.1815625 -0.169167 0.22186546 -0.023686377 -0.060039073 -0.21266623 -0.21466027 -0.20778435
0.095538646 0.26862738 -0.27432796 0.2364321 0.16638876 0.07302095 -0.083844796 -0.13867414
-0.10931715 -0.25803417 0.213576 -0.022386938 0.20166601 -0.09687422 -0.28178808 0.08926612
0.28068027 -0.030221425 -0.1768318 0.19348156 0.046718925 -0.13399158 -0.10235699 0.15197255
-0.18457915 -0.05174011 -0.021184433 0.21940611 -0.27052212 0.033955924 6.900361e-05 0.112242416
-0.19970477 -0.31308067 -0.26464996 0.20594537 -0.34316143 0.094958715 -0.2188392 -0.1395763
00000000: 009f a7bc aa56 1a3e 58c1 043e 60b0 11bd
00000010: d83e a33b c5d6 60be f572 a23c 0faa 79be
00000020: 32b8 553e 41c6 44be a3c8 ebbd 97bc 19be
00000030: c704 7a3e d509 2a3e 4b0d 92be b396 363e
00000040: 4dc1 203e 2159 48be 2be5 5f3d 9eb3 3c3e
00000050: ea08 4ebe 63dc 733e 55ad 913d 5d0a 22be
00000060: c58a 203e ca96 70be b0fb e8bd 2c89 0fbe
00000070: 1b99 e4bd af81 0ebe 8e68 a13d 69b2 4b3d
00000080: cca6 47be 6a24 0e3e 5c81 f53d 8613 87be
00000090: 35d6 a8be 9e8b 10be f4aa 7fbd b378 8abe
000000a0: c70b 943d df8d 8b3e ddfa 95be 2f13 ee3d
000000b0: 62cc 5ebe 553a 863e a5f7 b3bd eb52 99be
000000c0: 0e18 1fbe 6a7e 883e 0e19 b2bb da83 873e
000000d0: b61a 493d b29c 4abe d045 32be 07ac eebd
000000e0: 9825 1f3e 0f54 de3d f9f0 873e e3a6 f93b
000000f0: 8819 a0be 9b81 063d 6ba3 aabe 0b51 18be
00000100: bfc5 323d 2f0b 47be 614f 81be f9aa 82be
00000110: b670 d43d 5226 f43c bc8f 45bb 98e4 bdbb
00000120: 7b0f f33d 17c2 4cbe b89e 4f3e ad3f 9cbe
00000130: 9f75 873e 4507 44be f762 ca3d fcde 7e3e
00000140: 3345 903e c238 1c3e 09b6 f93d f6a7 b2bd
00000150: 067b 0cbe b01e 733e d025 96be f2a4 723e
00000160: fdf2 f1bc de7e 803e 1d1f 433e 5ff9 1fbe
00000170: 69fb 31be 2771 0ebe 7cf9 56be 7d5c 7e3e
00000180: 1e3e 403e 29f6 8fbe 564b 18be 6038 513e
00000190: da47 553e 8736 f5bd 5ab0 4d3b a235 10be
000001a0: eda9 52be ce1e 333c 8e5e a5bd 69be 0d3e
000001b0: cd8e 983d 7dce 97be 6afe 07be 2aa4 00be
000001c0: 8f20 493d 0a64 fbbc 8903 d53d 1e77 e73d
000001d0: c897 a23c ba27 64bd fcf2 f73c c362 0abc
000001e0: 085f 9b3e 44fe 59be 237c 973d c081 903e
000001f0: a269 9fbe 4863 953d de16 363e 5b44 1e3d
00000200: 8848 1fbe ab63 aa3d cf19 97bd 9cc4 643e
00000210: 545f 143e 5fff 003d 1e47 2a3e 3489 60be
00000220: a074 9c3d f31a fc3d 4b68 17bd 19ac c83d
00000230: 5bd4 883e 4540 9bbe 65e4 973d 61cc 343e
00000240: 25f4 ecbd 0448 423e a6e1 4e3e 5476 7a3b
00000250: c51c 7d3e a875 f23c 2012 343e e654 fabc
00000260: 2bde 52bc a3ed fa3d 6d68 433d 0e93 f3ba
00000270: f08b 583e ab87 003e fe15 96be 9f43 763e
00000280: a960 4dbe 8bd9 a6be 7b68 513e 8349 0fbe
00000290: a660 a43e f4e2 393d 2be2 6fbe 2273 61be
000002a0: 9b2a a2bd 9c1b 173e a81d 52be a3e9 ae3d
000002b0: b19e 303e c8f6 a8bd d40e 79be 4d98 a03c
000002c0: b4aa dbbc c515 f63b c7ab d9bd 4a3f 403e
000002d0: 464b 6bbe 1ed3 29be 7b96 db3c 0e00 1fbe
000002e0: f7cd 85be c01d 4f3c bc84 9d3e 3657 ec3d
000002f0: a974 0a3e caa9 893e b881 52bd 50ed be3d
00000300: 4511 273e 7c25 a23d 84e3 b5be afd5 983e
00000310: bfc7 a83e 43e4 0abd 1b65 37be 6f98 7b3e
00000320: 34cb 00be a844 57bd 86ad 13be cd69 2bbe
00000330: 31e2 b9be c906 9f3e ab8f 583e 0bdd e8bb
00000340: 85eb 39be 1d3a 2dbe b330 633e ef09 c2bc
00000350: 88eb 75bd 2dc5 59be e7cf 5bbe 6cc5 54be
00000360: c4a9 c33d 8789 893e b774 8cbe 421b 723e
00000370: d161 2a3e 028c 953d d2b6 abbd 9800 0ebe
00000380: ace1 dfbd 0e1d 84be abb3 5a3e d064 b7bc
00000390: 8981 4e3e fe65 c6bd 8746 90be 28d1 b63d
000003a0: 53b5 8f3e ec92 f7bc 6513 35be 0820 463e
000003b0: 585c 3f3d 1735 09be 8ba0 d1bd b19e 1b3e
000003c0: 5102 3dbe 70ed 53bd fa8a adbc ffab 603e
000003d0: e081 8abe 5e15 0b3d 08b6 9038 5adf e53d
000003e0: 687f 4cbe 1c4c a0be 3380 87be 58e3 523e
000003f0: dbb2 afbe b779 c23d 6217 60be 17ed 0ebe

network.3.weight f4 [128, 256]
-0.0026133358 0.016460113 -0.12596752 -0.010086313 0.24150492 0.016503334 0.043516874 0.061777964
0.4976329 0.021659039 -1.5650063 -0.0193291 -0.7902443 -1.2114747 -0.04697375 -0.8740641
-1.0415567 -0.5853091 -0.55440515 -1.4727088 -0.015763357 -0.80162776 -0.021958672 -0.037849337
-0.018793464 -1.0065439 0.035917666 -0.031640083 -0.32466215 -0.010503784 -0.00080036186 -0.31017226
0.038853705 -1.4908363 0.0071084513 -0.40717745 0.0058331448 0.04839933 -0.09625319 0.048665375
0.025688574 -0.022870101 -0.14073358 -0.3330646 -0.006335862 -0.55038124 -0.049493972 0.040335365
-0.33206537 -0.31708422 -0.5456235 -0.7376635 -0.002572395 0.037150692 0.0012727743 -0.62036526
-0.4377529 -0.46375114 -0.049644157 -0.46391326 -0.0035591722 -0.03397876 -0.7355799 -0.6576961
0.012462344 -0.041363962 -0.017070718 0.013354614 0.08230478 0.05348729 -0.02583413 -0.052333824
-0.16993013 -0.5270701 -0.38217843 -0.009410478 -0.8489302 0.0051456243 -0.0022969712 -0.9845313
0.028425418 0.039607286 -0.20142889 0.051213995 -0.05328673 0.4262284 0.057619102 0.0022583008
-0.55776983 -0.72174084 0.0005021433 0.008800469 0.049340077 0.062266573 -0.02660504 -0.825702
-0.76501644 0.032116078 -0.040965565 -0.053692468 -0.2456099 -1.0708058 0.030486241 0.06932977
-0.5611993 -0.061851893 -0.70950484 -0.4408769 -0.05955705 0.03756219 -0.00054266304 -0.078028634
-0.025784262 -0.50013703 0.45081538 -0.031755723 -0.5746037 -0.37030452 -0.4529136 -0.46021068
-0.03976555 -0.68330127 -0.01614739 -0.42326066 0.01486259 -0.007776588 -0.75609785 0.032018766
0.015990518 -1.1040051 0.059775233 0.05561222 -0.16448936 -0.90715086 -0.016764522 0.031413965
-0.512406 -0.04488454 -0.85961074 -0.24347723 -1.0166565 0.032621637 0.04270517 -0.51833326
-0.34071305 0.013646863 0.032721706 -0.38850275 0.0026774406 -0.1117286 -0.2243844 -0.025983706
-0.24133997 0.06040393 0.018339872 0.02749148 0.06053001 0.022907583 -0.61833674 0.0583029
-0.054448053 0.0123880105 0.023898162 0.011438012 -0.7318141 -0.8563058 -0.023574613 -0.035178766
-0.43487474 -0.05698231 -0.6468111 -0.023016749 0.020379528 -0.013897501 -0.030248456 -0.13945338
-0.05991692 -1.482496 0.019676037 0.059599496 -0.026317544 -0.70070076 -1.0117072 0.005052793
-0.05553835 0.02878166 -0.64987797 -0.02343186 -0.65277904 0.04120232 -0.003027603 -1.1814095
0.111663625 -0.33597642 -0.39727128 -0.8885284 -0.7394362 -1.4607556 -0.42371413 -0.50890595
-0.040972143 -0.037987463 -0.05357065 0.0075289905 0.16664754 -0.021416642 -0.015654638 0.028948031
-0.028321147 -0.015770167 -0.008036032 -0.07740336 -0.04286413 0.028547823 -0.05878745 0.008753553
0.04241512 0.0029809177 -0.00605994 -0.5248531 -1.046735 -0.8314111 0.029619746 -0.051051505
0.05417566 -0.017883882 0.038668882 -0.5523074 -0.84367996 -0.0057200342 -0.060896315 0.061733074
0.02097553 -0.041293316 0.007785946 -0.30393237 0.039637446 0.024690518 -0.0053491443 -0.37114286
0.042029932 -1.9802662 -1.4764589 0.08472431 -0.053710014 -0.5455576 -2.1539838 -0.576514
-0.45459902 -0.038008265 0.052718498 0.027100042 -1.0384322 0.6466985 0.017364308 -1.1660033
00000000: 8044 2bbb 5cd7 863c a1fd 00be 1041 25bc
00000010: 114d 773e 0032 873c c03e 323d e40a 7d3d
00000020: bdc9 fe3e 4c6e b13c 2052 c8bf 1058 9ebc
00000030: 734d 4abf 9a11 9bbf 8c67 40bd aac2 5fbf
00000040: bb51 85bf d1d6 15bf 7fed 0dbf b981 bcbf
00000050: 2822 81bc 7a37 4dbf ace2 b3bc e807 1bbd
00000060: c0f4 99bc 6ed6 80bf 671e 133d 0899 01bd
00000070: 1e3a a6be 1018 2cbc 60cf 51ba e6ce 9ebe
00000080: 1025 1f3d b9d3 bebf 03ee e83b 9079 d0be
00000090: f723 bf3b 603e 463d 6420 c5bd 5855 473d
000000a0: d870 d23c 145a bbbc 771c 10be 7187 aabe
000000b0: 109d cfbb c9e5 0cbf 31ba 4abd b236 253d
000000c0: 7904 aabe dd58 a2be fbad 0bbf 84d7 3cbf
000000d0: a095 28bb 532b 183d 38d3 a63a 42d0 1ebf
000000e0: 2621 e0be ca70 edbe ac57 4bbd 0a86 edbe
000000f0: 0041 69bb 502d 0bbd f74e 3cbf c65e 28bf
00000100: dc2e 4c3c 426d 29bd e4d7 8bbc 50cd 5a3c
00000110: 698f a83d 7d15 5b3d 19a2 d3bc fe5b 56bd
00000120: 2a02 2ebe 11ee 06bf e4ac c3be 682e 1abc
00000130: 7d53 59bf a09c a83b c888 16bb 3e0a 7cbf
00000140: 6cdc e83c 403b 223d 6043 4ebe c4c5 513d
00000150: 3043 5abd 9c3a da3e 0202 6c3d 0000 143b
00000160: 01ca 0ebf 02c4 38bf 44a2 033a d82f 103c
00000170: d218 4a3d 3c0b 7f3d d0f2 d9bc 3561 53bf
00000180: 1ed8 43bf 268c 033d 82cb 27bd a2ec 5bbd
00000190: 2981 7bbe 2a10 89bf 48be f93c c4fc 8d3d
000001a0: c2aa 0fbf 6958 7dbd 1ca2 35bf 9eba e1be
000001b0: 18f2 73bd d0da 193d 8041 0eba 7acd 9fbd
000001c0: 8439 d3bc fb08 00bf 46d1 e63e 4a12 02bd
000001d0: 3a19 13bf 8e98 bdbe 4be4 e7be bca0 ebbe
000001e0: 34e1 22bd d5ec 2ebf 8847 84bc 9fb5 d8be
000001f0: 3882 733c c0d2 febb a18f 41bf 1c26 033d
00000200: 8cfe 823c 0a50 8dbf e0d6 743d a4c9 633d
00000210: e66f 28be 0a3b 68bf c055 89bc eeab 003d
00000220: 0a2d 03bf dad8 37bd 730f 5cbf 1852 79be
00000230: cd21 82bf 449e 053d 9eeb 2e3d 7db1 04bf
00000240: f171 aebe 1897 5f3c 3207 063d d5e9 c6be
00000250: 0078 2f3b f7d1 e4bd 06c5 65be c8db d4bc
00000260: d321 77be 1c6a 773d 803d 963c d035 e13c
00000270: 51ee 773d afa8 bb3c 514b 1ebf 06cf 6e3d
00000280: ec04 5fbd 15f7 4a3c 14c6 c33c 8066 3b3c
00000290: 2b58 3bbf db36 5bbf 8c1f c1bc 9c17 10bd
000002a0: e7a7 debe 4866 69bd 6a95 25bf 9f8d bcbc
000002b0: f8f2 a63c 58b2 63bc 9ccb f7bc decc 0ebe
000002c0: 726b 75bd 6ec2 bdbf a42f a13c 9a1e 743d
000002d0: e497 d7bc 2061 33bf 9f7f 81bf e691 a53b
000002e0: 2e7c 63bd 84c7 eb3c 675e 26bf 2cf4 bfbc
000002f0: 871c 27bf c4c3 283d c06a 46bb 6d38 97bf
00000300: e6af e43d 1a05 acbe 2467 cbbe 9976 63bf
00000310: b14b 3dbf 0afa babf 0ff1 d8be a947 02bf
00000320: 68d2 27bd be98 1bbd e66c 5bbd c0b5 f63b
00000330: a7a5 2a3e f471 afbc 283e 80bc 6c24 ed3c
00000340: c001 e8bc 7030 81bc 90a9 03bc a785 9ebd
00000350: 4c92 2fbd 20dd e93c 1ccb 70bd 106b 0f3c
00000360: 7abb 2d3d 805b 433b 7692 c6bb c65c 06bf
00000370: 6afb 85bf 5cd7 54bf 1ca5 f23c 621b 51bd
00000380: 4ce7 5d3d 3881 92bc 4363 1e3d 0564 0dbf
00000390: 69fb 57bf 206f bbbb 6a6e 79bd d2db 7c3d
000003a0: e0d4 ab3c 2e23 29bd 4021 ff3b 069d 9bbe
000003b0: e05a 223d c543 ca3c e047 afbb 7006 bebe
000003c0: 9427 2c3d 5d79 fdbf 9bfc bcbf f083 ad3d
000003d0: 08ff 5bbd aaa9 0bbf dfda 09c0 6c96 13bf
000003e0: 34c1 e8be 8eae 1bbd 5aef 573d e800 de3c
000003f0: 59eb 84bf 088e 253f 983f 8e3c 993f 95bf

network.3.bias f4 [128]
0.60183066 0.16378394 0.8688059 0.19637012 0.7373439 0.6527714 0.58245206 0.92943084
0.00056558143 0.79143715 0.34179223 0.10236854 0.1416808 -0.042053275 0.3512112 0.32782862
-0.05706051 0.0676138 0.059598196 0.08004252 0.363041 0.037396695 0.18742223 0.47334933
0.0020566683 0.6262796 0.02631869 0.021965327 -0.07350651 0.89722455 -0.060145434 0.61555016
0.6217563 -0.026209287 0.12518251 0.03875035 0.10738865 -0.07274775 0.09837583 0.2854743
0.5287714 0.055963792 0.67911124 0.14392291 0.49768394 0.06502063 0.21529472 0.10331855
0.09201825 0.2428374 0.49605703 0.20238052 0.51473695 0.5762838 0.14306204 0.8943025
0.24815573 0.059489425 0.23396151 0.85891426 0.5594236 -0.020029256 0.006921346 0.6164287
1.1361977 0.013955547 0.24828398 -0.032439914 0.11540808 0.17208958 0.4560151 0.10654173
0.9252139 0.13334914 0.026983075 0.6404472 0.24983682 0.05366261 0.11974811 0.045743305
0.5782872 0.076085955 0.11497553 0.059513364 0.46064657 0.46867388 0.7607411 0.27240476
-0.013248371 -0.039698377 0.4639864 0.53767955 0.46218637 -0.0038452742 -0.014769248 -0.058365744
-0.06669554 0.5647773 0.52280164 0.35173443 0.2601439 1.1822495 0.123292685 0.49310443
-0.0379147 -0.04370822 0.017021053 0.014689923 0.54435295 0.8670894 0.030144665 -0.026129361
0.16863373 0.5712613 0.66642934 0.004492683 0.6981205 0.6161925 0.26669052 0.16084109
0.9735585 0.13180068 0.057616442 0.2891762 -0.05961804 0.16957437 0.49489054 -0.007183896
00000000: 9311 1a3f fab6 273e 106a 5e3f 4015 493e
00000010: 92c2 3c3f 071c 273f 941b 153f 2eef 6d3f
00000020: 8743 143a a09b 4a3f 64ff ae3e 99a6 d13d
00000030: c614 113e 0e40 2cbd f4d1 b33e 27d9 a73e
00000040: 48b8 69bd 1b79 8a3d 3d1d 743d 55ed a33d
00000050: 83e0 b93e 472d 193d 9deb 3f3e d85a f23e
00000060: 2bc9 063b dc53 203f 4b9a d73c a1f0 b33c
00000070: 958a 96bd 82b0 653f 0f5b 76bd b294 1d3f
00000080: 6c2b 1f3f dcb4 d6bc d82f 003e b0b8 1e3d
00000090: 95ee db3d c6fc 94bd 4479 c93d b029 923e
000000a0: 905d 073f 4a3a 653d 3cda 2d3f 8760 133e
000000b0: 6ed0 fe3e 8929 853d 3876 5c3e ad98 d33d
000000c0: 1074 bc3d 5eaa 783e 30fb fd3e d73c 4f3e
000000d0: cdc5 033f 5687 133f db7e 123e 02f1 643f
000000e0: 891c 7e3e 2fab 733d 9b93 6f3e cee1 5b3f
000000f0: 6336 0f3f 6514 a4bc 75cc e23b 45ce 1d3f
00000100: ed6e 913f cea5 643c 283e 7e3e b7df 04bd
00000110: 125b ec3d 4038 303e d07a e93e 8d32 da3d
00000120: d1da 6c3f ad8c 083e 9c0b dd3c 59f4 233f
00000130: 39d5 7f3e 53cd 5b3d 7f3e f53d 555d 3b3d
00000140: a10a 143f f4d2 9b3d 4a78 eb3d 49c4 733d
00000150: ded9 eb3e 06f6 ef3e eebf 423f a378 8b3e
00000160: b20f 59bc c49a 22bd a08f ed3e 5ea5 093f
00000170: b1a3 ec3e ff00 7cbb b7fa 71bc eb10 6fbd
00000180: ac97 88bd 3f95 103f 54d6 053f 8916 b43e
00000190: 9531 853e f453 973f e080 fc3d 2f78 fc3e
000001a0: 724c 1bbd 6407 33bd bc6f 8b3c 01ae 703c
000001b0: b75a 0b3f 92f9 5d3f f2f1 f63c 3e0d d6bc
000001c0: 52ae 2c3e 2e3e 123f 1d9b 2a3f 5b37 933b
000001d0: 06b8 323f cbbe 1d3f a98b 883e 87b3 243e
000001e0: 213b 793f c2f6 063e 38ff 6b3d e70e 943e
000001f0: 0c32 74bd e7a4 2d3e 4b62 fd3e e366 ebbb

network.6.weight f4 [64, 128]
-0.46112475 0.10408317 0.15858117 0.24357398 1.5851909 0.26924598 0.2326406 0.27438703
0.049131457 0.23635063 -0.44945705 0.17296696 0.19697756 0.07663118 0.115540534 -1.11123
-0.07035674 0.14902426 0.12479522 -0.004081052 -1.8987333 0.20509791 -0.25816882 0.058243297
0.21282496 -0.38757402 0.13621512 0.006467637 -0.06420505 0.20603025 -0.075168855 0.24729735
-0.45378885 0.110309236 0.08959256 0.0717769 0.13556759 0.0054758512 0.048463166 0.018298032
0.41244227 0.0796371 0.20779216 0.16422552 -0.121104784 0.24526419 0.1402187 0.1337963
0.09322568 0.099736325 -1.3148549 0.11890332 -0.6387342 -0.04306736 0.045101397 0.21730848
0.013595065 0.067164965 0.08314073 0.26925448 -0.2197245 0.20865907 0.15936351 -0.42816028
0.47893435 0.13479795 -0.22768164 0.025185551 0.07791242 0.21150282 0.1389996 0.13674256
0.28374133 0.12564252 0.13843526 -0.0847066 0.17719574 0.05447727 0.09132015 0.019795831
-0.4453971 0.18088673 0.121902674 0.12757875 0.11766773 0.05123653 0.16063148 0.068698555
0.21370159 0.00347678 0.09774529 -0.19514574 -0.21321204 0.025101615 0.08682711 -0.034380518
-0.020599803 -0.10867965 0.10415889 0.049366437 0.13458648 0.3838792 0.19390023 0.07844363
-0.08660025 -0.06114362 0.02455107 0.05944852 -0.34284666 0.2795777 0.2175817 -0.04888553
0.21066311 0.001646754 0.9693886 0.2301767 0.5702263 -0.7312747 -0.07109624 0.2000225
0.2224882 0.100531876 0.16145316 -0.05946326 -0.040040713 -0.11766657 0.22057045 -0.048326828
0.86770374 0.03207589 0.31066573 0.07648272 -1.7562106 0.07270136 -0.07381153 0.18431205
-0.055862788 0.15892535 0.6507717 0.05762149 0.05456196 -0.08778026 0.20423512 1.2560636
0.03281695 0.1705833 0.08877768 -0.11852814 1.5726722 0.0826295 0.3093518 -0.1668432
0.023335587 1.0517244 0.0013899778 0.01059346 -0.0032985827 0.2712891 0.07285609 -0.050795086
0.89513826 0.046921466 0.0511127 0.03140821 0.0019623511 -0.020662088 0.0036036156 -0.061233975
0.058085646 -0.08079995 0.20872127 0.033223584 0.74949443 0.03758478 0.03702656 0.1719194
0.09765474 0.00315097 1.5234878 0.09939681 0.929698 0.6663356 -0.07307294 0.253143
-0.013098284 0.14157012 0.14653437 0.17223488 0.80286956 0.09771857 -0.06115257 0.9493262
-0.054260813 0.0041631577 0.52732587 -0.0795425 0.027919546 0.039052885 -0.13750082 0.09327975
0.14656296 -0.006062819 -0.024032723 0.7334913 0.100480705 0.10354595 0.029082354 0.02575087
1.0598657 -0.024274955 0.09439904 0.004263635 -0.18065959 0.08962948 0.21112897 -0.008739402
-0.042835504 -0.039720632 -0.009069786 0.69882125 0.84763443 -0.060636986 0.037803147 -0.018320553
-0.04532262 0.7579824 -0.14672004 0.0681943 -0.025892446 0.07862022 0.013016283 -0.014491677
-0.027014963 0.054643627 0.08016281 -0.058984324 0.9247726 0.27721372 -0.0016083661 -0.010332381
0.09185303 0.47736126 -0.6939628 0.04141217 -0.5286868 1.0889668 0.40113005 0.11224546
0.25551078 0.043027308 -0.04037483 -0.10149116 -0.034221616 0.32804853 0.17170294 0.00075816206
00000000: 8b18 ecbe 8f29 d53d 1a63 223e 756b 793e
00000010: 89e7 ca3f 9cda 893e 5639 6e3e 757c 8c3e
00000020: 113e 493d e605 723e 3c1f e6be 401e 313e
00000030: 7cb4 493e cff0 9c3d 84a0 ec3d c93c 8ebf
00000040: 3217 90bd d199 183e a394 ff3d 58ba 85bb
00000050: b109 f3bf 3005 523e b42e 84be 8690 6e3d
00000060: c9ee 593e 1a70 c6be fa7b 0b3e 79ee d33b
00000070: f07d 83bd 98f9 523e 21f2 99bd 843b 7d3e
00000080: 0357 e8be cfe9 e13d 4e7c b73d c4ff 923d
00000090: 3bd2 0a3e c56e b33b 5081 463d c1e5 953c
000000a0: a22b d33e c718 a33d 78c7 543e bc2a 283e
000000b0: c905 f8bd 8926 7b3e 7e95 0f3e e601 093e
000000c0: 1bed be3d 8f42 cc3d 2a4d a8bf 9583 f33d
000000d0: 1684 23bf 6667 30bd 3ebc 383d 1d86 5e3e
000000e0: d6bd 5e3c c98d 893d b045 aa3d b9db 893e
000000f0: 76ff 60be b9aa 553e 3030 233e d337 dbbe
00000100: e236 f53e 7908 0a3e 6025 69be ee51 ce3c
00000110: 8c90 9f3d 3294 583e e955 0e3e 3e06 0c3e
00000120: 8b46 913e 6fa8 003e f9c1 0d3e a77a adbd
00000130: cd72 353e 8f23 5f3d 0f06 bb3d de2a a23c
00000140: 170b e4be 5f3a 393e 1ca8 f93d 01a4 023e
00000150: c7fb f03d 65dd 513d 947c 243e d4b1 8c3d
00000160: 97d4 5a3e b0da 633b af2e c83d 49d4 47be
00000170: 4254 5abe e7a1 cd3c 69d2 b13d 96d2 0cbd
00000180: ebc0 a8bc 7093 debd 4251 d53d 7634 4a3d
00000190: 0ad1 093e d18b c43e c88d 463e 0ea7 a03d
000001a0: 795b b1bd bc71 7abd 531f c93c 4b80 733d
000001b0: 9989 afbe cf24 8f3e bdcd 5e3e 323c 48bd
000001c0: 12b8 573e e5d7 d73a da29 783f 71b3 6b3e
000001d0: 5afa 113f d234 3bbf e89a 91bd b3d2 4c3e
000001e0: f2d3 633e a8e3 cd3d fa53 253e bf8f 73bd
000001f0: bb01 24bd 2cfb f0bd 38dd 613e 5af2 45bd
00000200: d521 5e3f 0262 033d 940f 9f3e f9a2 9c3d
00000210: 82cb e0bf 73e4 943d 802a 97bd 4cbc 3c3e
00000220: 61d0 64bd 54bd 223e f998 263f 8304 6c3d
00000230: 5d7c 5f3d 23c6 b3bd 0323 513e b1c6 a03f
00000240: 116b 063d 63ad 2e3e 13d1 b53d e2be f2bd
00000250: 534d c93f a839 a93d 5c63 9e3e f2d8 2abe
00000260: 462a bf3c e89e 863f ea2f b63a 3190 2d3c
00000270: 092d 58bb 68e6 8a3e 9335 953d 820e 50bd
00000280: c827 653f b930 403d 8d5b 513d e5a5 003d
00000290: ca9a 003b 8a43 a9bc a32a 6c3b 7ad0 7abd
000002a0: 37eb 6d3d 727a a5bd 07bb 553e 7415 083d
000002b0: dede 3f3f 80f2 193d 2aa9 173d a40b 303e
000002c0: 35ff c73d 8180 4e3b a601 c33f 8e90 cb3d
000002d0: b000 6e3f f894 2a3f 44a7 95bd f69b 813e
000002e0: 2f9a 56bc c2f7 103e 1b0d 163e 575e 303e
000002f0: dc88 4d3f ac20 c83d 1e7b 7abd 0b07 733f
00000300: 9640 5ebd 196b 883b d4fe 063f 2ee7 a2bd
00000310: 88b7 e43c ebf5 1f3d 04cd 0cbe 7409 bf3d
00000320: 9a14 163e 9daa c6bb 46e0 c4bc 16c6 3b3f
00000330: d4c8 cd3d e60f d43d 1e3e ee3c 7df3 d23c
00000340: aea9 873f 45dc c6bc 4954 c13d f6b5 8b3b
00000350: d4fe 38be a98f b73d 3132 583e b52f 0fbc
00000360: 4874 2fbd 1ab2 22bd 7199 14bc f3e5 323f
00000370: 92fe 583f 7d5e 78bd 79d7 1a3d fc14 96bc
00000380: 36a4 39bd 220b 423f c73d 16be 74a9 8b3d
00000390: 651c d4bc a303 a13d 3f42 553c 806e 6dbc
000003a0: 7c4e ddbc ffd1 5f3d 662c a43d 8c99 71bd
000003b0: e6bd 6c3f f5ee 8d3e d0cf d2ba 2649 29bc
000003c0: 711d bc3d b268 f43e 8ca7 31bf cf9f 293d
000003d0: 0558 07bf 4463 8b3f eb60 cd3e f3e0 e53d
000003e0: 4fd2 823e 673d 303d 1460 25bd 99da cfbd
000003f0: f72b 0cbd faf5 a73e e5d2 2f3e 65bf 463a

network.6.bias f4 [64]
1.7897414 -0.8652301 -0.050639335 2.3305023 -0.95429534 1.5573436 2.267553 1.9811083
1.9431512 1.5174356 2.3024092 0.02301898 1.4414548 -0.07756626 1.6947074 1.6214813
1.3512464 1.2799355 -0.6870883 -0.036584184 1.6358702 1.8667672 1.4622632 1.4979707
1.4914353 1.4605535 1.8206645 -0.10949832 1.9783299 -0.75644684 -1.0680319 -0.07702393
-0.6030529 -0.8064639 1.690694 1.8205911 1.9322095 0.051224247 -1.0518738 2.297299
1.7345153 -1.1048546 1.9698248 0.005393387 1.7068884 1.1586723 1.4053661 1.6382039
1.5375475 -0.028227558 1.3550793 1.9269918 -0.7092439 1.4348092 0.650021 1.5841208
1.708128 1.5111288 2.165141 1.7354068 1.4795673 -0.9028441 -1.0384346 1.2474614
00000000: 3f16 e53f b87f 5dbf 316b 4fbd f326 1540
00000010: b34c 74bf 0957 c73f 971f 1140 f594 fd3f
00000020: 2eb9 f83f 543b c23f ac5a 1340 4d92 bc3c
00000030: 9781 b83f 0fdb 9ebd 2cec d83f b38c cf3f
00000040: a4f5 ac3f edd4 a33f 05e5 2fbf 4cd9 15bd
00000050: 3264 d13f 3af2 ee3f 712b bb3f 81bd bf3f
00000060: 5ae7 be3f 6bf3 ba3f 890b e93f a840 e0bd
00000070: ea39 fd3f 80a6 41bf 45b5 88bf b9be 9dbd
00000080: ad61 1abf 6b74 4ebf a968 d83f 2109 e93f
00000090: a452 f73f 84d0 513d cda3 86bf f206 1340
000000a0: 9904 de3f e06b 8dbf 3823 fc3f 02bb b03b
000000b0: 527b da3f 604f 943f 09e3 b33f aab0 d13f
000000c0: 5bce c43f 7b3d e7bc 3d73 ad3f aba7 f63f
000000d0: 0291 35bf d4a7 b73f c767 263f 78c4 ca3f
000000e0: f0a3 da3f ab6c c13f ac91 0a40 cf21 de3f
000000f0: 7662 bd3f ca20 67bf 6deb 84bf d1ac 9f3f

network.8.weight f4 [5, 64]
0.25453353 -0.5301185 0.062286995 1.985228 -0.4550752 0.27438533 0.21372417 0.23846936
0.20221436 -0.9912155 0.12717868 -0.12663142 0.29490164 -0.068162195 0.24987558 0.2926622
0.3560099 0.32275745 -0.53288656 0.037393607 3.014081 0.20737252 0.30196953 0.35093465
-0.7262843 3.1909513 0.24425675 0.021987773 0.28652495 -0.49605408 -0.34810132 0.043595023
-0.6690771 -0.5671415 0.274608 0.17541808 0.20323046 0.061153058 -0.3319138 2.2449849
0.28778708 -0.41270715 0.19312714 -0.005116934 0.17570658 1.111095 0.32802984 0.267464
0.23438369 -0.028185451 0.30024284 0.20462999 -0.38096532 0.34741294 -0.55353844 -0.37666345
0.29454958 0.25603482 0.14728741 0.20808144 0.32665867 -0.42326066 -0.37757805 0.3418379
0.24724932 -0.50246286 -0.033902735 2.035343 -0.6064832 0.20396994 0.34900513 0.3367301
0.27548772 -0.6744378 0.32102275 -0.05483447 0.14744225 -0.062564194 0.17010841 0.28076553
0.3525527 0.22459272 -0.3969406 0.077153735 2.5908842 0.29747722 0.27054048 0.27351958
-0.61869794 2.9819152 0.2107913 0.10911719 0.42132485 -0.4574768 -0.5850496 0.07998027
-0.4868681 -0.6390084 0.3424062 0.31558964 0.30490687 -0.009849731 -0.5771815 2.2960181
0.30316812 -0.49846902 0.2732417 0.019620938 0.15698676 1.0991373 0.2252461 0.32636294
0.16539373 -0.017553698 0.20244731 0.16931523 -0.31326583 0.23105116 -0.5116283 -0.5380227
0.33031473 0.34218147 0.25922316 0.1910669 0.22828072 -0.5233015 -0.55139256 0.18168187
0.3051741 -0.5245691 0.10671345 2.0127153 -0.5968672 0.16642901 0.29720628 0.34887856
0.3184544 -0.6903962 0.31242582 0.025336903 0.31761006 -0.07128259 0.3112779 0.15594059
0.1871356 0.11920255 -0.53137416 -0.08243804 2.6111646 0.31514755 0.14078584 0.43496624
-0.519909 2.994282 0.33340833 -0.11627721 0.32273036 -0.47131112 -0.49446213 -0.015623209
-0.5727438 -0.3885462 0.21560629 0.25477156 0.28609076 -0.1204104 -0.462708 2.3173263
0.28889692 -0.5837393 0.35717094 -0.1143595 0.14915739 0.9806943 0.31443712 0.13254207
0.16605274 0.049714595 0.21233203 0.3574699 -0.1508607 0.3515891 -0.5958141 -0.58443844
0.13964467 0.16432439 0.2982062 0.3297848 0.2807371 -0.5990244 -0.55258036 0.17679973
0.31655985 -0.41340473 0.07566753 1.9900304 -0.49620962 0.2993622 0.38319796 0.3163312
0.16320229 -0.7689651 0.3167251 -0.09111436 0.12704852 0.10250675 0.2560619 0.32989663
0.15539408 0.12361315 -0.38225788 -0.07647879 2.5508885 0.2498236 0.3333782 0.26628274
-0.58325267 2.9294798 0.28384474 0.019420257 0.508245 -0.33277303 -0.50431603 -0.11324496
-0.56375945 -0.5495779 0.16252771 0.17525269 0.22414853 -0.08917282 -0.446595 2.314708
0.3165213 -0.47235274 0.33797523 0.0023590568 0.25502613 0.9801165 0.17129858 0.3251515
0.24121249 -0.11112981 0.23276414 0.34913424 -0.1249673 0.25204572 -0.52699375 -0.501413
0.33001876 0.15252909 0.30187097 0.18864481 0.19429249 -0.62277305 -0.57498485 0.25951356
00000000: 3852 823e d9b5 07bf a620 7f3d f31b fe3f
00000010: 9eff e8be 3c7c 8c3e 82da 5a3e 5031 743e
00000020: 4811 4f3e 4dc0 7dbf 213b 023e abab 01be
00000030: 59fd 963e 9f98 8bbd 62df 7f3e d2d7 953e
00000040: ee46 b63e 7740 a53e 416b 08bf 0a2a 193d
00000050: b4e6 4040 7659 543e c09b 9a3e b5ad b33e
00000060: c5ed 39bf 8c38 4c40 711e 7a3e b41f b43c
00000070: 66b3 923e cdfa fdbe 563a b2be b290 323d
00000080: a348 2bbf 2f30 11bf 6b99 8c3e cca0 333e
00000090: a51b 503e a17b 7a3d 9bf0 a9be d5ad 0f40
000000a0: d458 933e 5a4e d3be 1fc3 453e f4ab a7bb
000000b0: 6dec 333e 5c38 8e3f 87f3 a73e 0bf1 883e
000000c0: 4702 703e 2de5 e6bc 6eb9 993e 868a 513e
000000d0: e30d c3be 1ce0 b13e b2b4 0dbf 08da c0be
000000e0: 34cf 963e ff16 833e 83d2 163e 4d13 553e
000000f0: ce3f a73e 9fb5 d8be e951 c1be 6105 af3e
00000100: ed2e 7d3e 68a1 00bf 98dd 0abd 0f43 0240
00000110: 7c42 1bbf 7fdd 503e cdb0 b23e e367 ac3e
00000120: ba0c 8d3e f5a7 2cbf 185d a43e 1c9a 60bd
00000130: 1afb 163e a821 80bd e630 2e3e 80c0 8f3e
00000140: ca81 b43e a2fb 653e cc3b cbbe c702 9e3d
00000150: 0cd1 2540 ef4e 983e 4884 8a3e c20a 8c3e
00000160: fd62 1ebf b3d7 3e40 add9 573e d578 df3d
00000170: e4b7 d73e 663a eabe d0c5 15bf b2cc a33d
00000180: c746 f9be 0e96 23bf de4f af3e f794 a13e
00000190: c11c 9c3e c460 21bc 2bc2 13bf f6f1 1240
000001a0: da38 9b3e 5537 ffbe 56e6 8b3e 17bc a03c
000001b0: 23c1 203e 88b0 8c3f eaa6 663e 0b19 a73e
000001c0: f95c 293e c6cc 8fbc 594e 4f3e f960 2d3e
000001d0: 6164 a0be ad98 6c3e 13fa 02bf dbbb 09bf
000001e0: 031f a93e 6932 af3e e6b8 843e 0ba7 433e
000001f0: 6cc2 693e 16f7 05bf 1028 0dbf d00a 3a3e
00000200: c83f 9c3e 294a 06bf 958c da3d 54d0 0040
00000210: 4acc 18bf 5e6c 2a3e 6c2b 983e 36a0 b23e
00000220: 750c a33e cebd 30bf 47f6 9f3e 568f cf3c
00000230: c99d a23e 9bfc 91bd d15f 9f3e e4ae 1f3e
00000240: 7aa0 3f3e 7720 f43d 2308 08bf 46d5 a8bd
00000250: 521d 2740 055b a13e 2a2a 103e e5b3 de3e
00000260: c218 05bf 51a2 3f40 7fb4 aa3e bf22 eebd
00000270: ea3c a53e b14f f1be 242a fdbe 7df8 7fbc
00000280: 569f 12bf 87ef c6be e5c7 5c3e 6b71 823e
00000290: 7d7a 923e ba99 f6bd 10e8 ecbe 134f 1440
000002a0: 4cea 933e f06f 15bf 1cdf b63e 5035 eabd
000002b0: b7bc 183e c80e 7b3f e7fd a03e 1cb9 073e
000002c0: bb09 2a3e 88a1 4b3d 916d 593e 4b06 b73e
000002d0: 3a7b 1abe 7d03 b43e 4687 18bf c29d 15bf
000002e0: 03ff 0e3e a744 283e 7cae 983e 8ed9 a83e
000002f0: c6bc 8f3e aa59 19bf e875 0dbf fd0a 353e
00000300: 2214 a23e c9a9 d3be 94f7 9a3d 51b9 fe3f
00000310: 300f febe 0146 993e 8632 c43e 2af6 a13e
00000320: 801e 273e e6da 44bf cb29 a23e 2a9a babd
00000330: 0219 023e 0fef d13d 8c1a 833e 36e8 a83e
00000340: a01f 1f3e e428 fd3d 4eb7 c3be e9a0 9cbd
00000350: c241 2340 c2d1 7f3e 8cb0 aa3e 3656 883e
00000360: 0c50 15bf 997c 3b40 1954 913e 3b17 9f3c
00000370: 581c 023f 3a61 aabe db1a 01bf f9ec e7bd
00000380: 8a52 10bf 23b1 0cbf aa6d 263e 7175 333e
00000390: 3187 653e 3da0 b6bd 1aa8 e4be 2d24 1440
000003a0: 140f a23e 38d8 f1be 170b ad3e 689a 1a3b
000003b0: c992 823e eae8 7a3f e568 2f3e 427a a63e
000003c0: 6800 773e 0798 e3bd b959 6e3e b9c1 b23e
000003d0: dbee ffbd 230c 813e 10e9 06bf 9a5c 00bf
000003e0: 38f8 a83e 9630 1c3e d58e 9a3e 1b2c 413e
000003f0: 9cf4 463e 0e6e 1fbf 3532 13bf f6de 843e

network.8.bias f4 [5]
0.015792046 0.9888646 1.3380919 1.1574569 0.9530986
00000000: 525e 813c 3b26 7d3f 9846 ab3f 8c27 943f
00000010: 45fe 733f

exp_avg f4 [256, 10]
0.0 0.0 0.0 0.0 0.0 0.0 0.0 0.0
0.0 0.0 4.529317 0.8430094 1.1263602 -0.13693132 15.759377 25.0534
0.20958745 -0.36092138 8.823213 3.2917085 3.3681962 0.6481906 0.789632 0.04186231
10.9825945 18.872139 0.4212661 6.1143603 8.928725 2.40779 0.0 0.0
0.0 0.0 0.0 0.0 0.0 0.0 0.0 0.0
1.1241549 0.22814016 0.23954621 -0.106954254 2.5180256 6.306646 0.13215457 4.2818494
3.4597735 0.7118488 0.0 0.0 0.0 0.0 0.0 0.0
0.0 0.0 0.0 0.0 0.0 0.0 0.0 0.0
0.0 0.0 0.0 0.0 0.0 0.0 0.0 0.0
0.0 0.0 0.0 0.0 0.0 0.0 0.0 0.0
34.14116 5.792523 9.371922 1.8167267 135.87285 193.87767 -0.3433253 -2.8927584
54.260376 27.171782 0.0 0.0 0.0 0.0 0.0 0.0
0.0 0.0 0.0 0.0 0.64907455 0.21850103 0.04601545 -0.6617758
-0.24390505 2.6061258 0.6829309 7.3436666 4.8611236 -0.026131313 0.0 0.0
0.0 0.0 0.0 0.0 0.0 0.0 0.0 0.0
5.822401 1.1067923 1.318135 0.10837506 17.503435 32.91522 0.6014105 9.320499
10.618134 4.334468 10.974326 2.0272975 2.7163625 0.35596332 36.22285 61.350136
0.9274679 12.816311 17.169653 8.144901 0.0 0.0 0.0 0.0
0.0 0.0 0.0 0.0 0.0 0.0 11.113045 2.050342
2.6367335 0.5803374 36.908245 62.89705 0.28701422 16.083302 12.915093 8.396926
7.0093775 1.3601192 1.6671926 -0.17661831 23.215057 38.478344 0.36055848 10.860598
16.385525 4.8548064 -22.637856 -3.8135066 -6.2324014 -1.9108995 -87.63922 -128.53662
-0.9057265 -5.371786 -33.806145 -18.110023 -4.1461463 -0.7021989 -1.1776804 -0.26528764
-18.956966 -23.303726 -0.06893274 -3.8396137 15.003103 -3.2975488 -6.050993 -0.8916832
-1.9289815 -0.97413754 -26.891352 -34.77771 0.24139638 1.981288 -6.0155835 -5.205629
0.0 0.0 0.0 0.0 0.0 0.0 0.0 0.0
0.0 0.0 14.120213 2.663167 3.428481 -0.09171083 48.62939 77.85596
1.2864878 22.168583 22.03805 10.087819 0.0 0.0 0.0 0.0
0.0 0.0 0.0 0.0 0.0 0.0 0.0 0.0
0.0 0.0 0.0 0.0 0.0 0.0 0.0 0.0
0.0 0.0 0.0 0.0 0.0 0.0 0.0 0.0
0.0 0.0 -39.5029 -6.7340918 -10.620078 -3.7691507 -149.91669 -224.68866
00000000: 0000 0000 0000 0000 0000 0000 0000 0000
00000010: 0000 0000 0000 0000 0000 0000 0000 0000
00000020: 0000 0000 0000 0000 2af0 9040 77cf 573f
00000030: 922c 903f b937 0cbe 6826 7c41 5d6d c841
00000040: 189e 563e b0ca b8be e12b 0d41 5aab 5240
00000050: 8790 5740 d2ef 253f 5325 4a3f d077 2b3d
00000060: b5b8 2f41 24fa 9641 31b0 d73e d7a8 c340
00000070: 0fdc 0e41 3b19 1a40 0000 0000 0000 0000
00000080: 0000 0000 0000 0000 0000 0000 0000 0000
00000090: 0000 0000 0000 0000 0000 0000 0000 0000
000000a0: 4fe4 8f3f 939d 693e 9a4b 753e d50a dbbd
000000b0: 5527 2140 0bd0 c940 8753 073e e904 8940
000000c0: ee6c 5d40 b93b 363f 0000 0000 0000 0000
000000d0: 0000 0000 0000 0000 0000 0000 0000 0000
000000e0: 0000 0000 0000 0000 0000 0000 0000 0000
000000f0: 0000 0000 0000 0000 0000 0000 0000 0000
00000100: 0000 0000 0000 0000 0000 0000 0000 0000
00000110: 0000 0000 0000 0000 0000 0000 0000 0000
00000120: 0000 0000 0000 0000 0000 0000 0000 0000
00000130: 0000 0000 0000 0000 0000 0000 0000 0000
00000140: 8c90 0842 595c b940 64f3 1541 808a e83f
00000150: 73df 0743 afe0 4143 55c8 afbe f422 39c0
00000160: a00a 5942 cf5f d941 0000 0000 0000 0000
00000170: 0000 0000 0000 0000 0000 0000 0000 0000
00000180: 0000 0000 0000 0000 0000 0000 0000 0000
00000190: c029 263f bcbe 5f3e b27a 3c3d 246a 29bf
000001a0: 3fc2 79be c4ca 2640 8fd4 2e3f 51ff ea40
000001b0: 538e 9b40 5611 d6bc 0000 0000 0000 0000
000001c0: 0000 0000 0000 0000 0000 0000 0000 0000
000001d0: 0000 0000 0000 0000 0000 0000 0000 0000
000001e0: 1c51 ba40 5fab 8d3f a6b8 a83f bef3 dd3d
000001f0: 0907 8c41 2fa9 0342 0af6 193f c420 1541
00000200: e0e3 2941 f6b3 8a40 d796 2f41 3ebf 0140
00000210: e2d8 2d40 d340 b63e 33e4 1042 8a66 7542
00000220: 896e 6d3f 9c0f 4d41 735b 8941 8451 0241
00000230: 0000 0000 0000 0000 0000 0000 0000 0000
00000240: 0000 0000 0000 0000 0000 0000 0000 0000
00000250: 0000 0000 0000 0000 08cf 3141 ce38 0340
00000260: 3ec0 2840 fe90 143f 0ba2 1342 9496 7b42
00000270: 87f3 923e 9aaa 8041 39a4 4e41 cf59 0641
00000280: d24c e040 6318 ae3f 9166 d53f 6edb 34be
00000290: 70b8 b941 d3e9 1942 1f9b b83e 02c5 2d41
000002a0: 8e15 8341 935a 9b40 541a b5c1 7e10 74c0
000002b0: d56f c7c0 5b98 f4bf 4847 afc2 6089 00c3
000002c0: b1dd 67bf ace5 abc0 7e39 07c2 54e1 90c1
000002d0: 3bad 84c0 4fc3 33bf 3bbe 96bf c8d3 87be
000002e0: dea7 97c1 086e bac1 9c2c 8dbd 3bbc 75c0
000002f0: b60c 7041 0a0b 53c0 bca1 c1c0 5a45 64bf
00000300: dee8 f6bf 1461 79bf 7d21 d7c1 601c 0bc2
00000310: 9d30 773e d89a fd3f a97f c0c0 8394 a6c0
00000320: 0000 0000 0000 0000 0000 0000 0000 0000
00000330: 0000 0000 0000 0000 0000 0000 0000 0000
00000340: 0000 0000 0000 0000 64ec 6141 5471 2a40
00000350: 3c6c 5b40 e3d2 bbbd 7f84 4242 40b6 9b42
00000360: a2ab a43f 4259 b141 ed4d b041 b567 2141
00000370: 0000 0000 0000 0000 0000 0000 0000 0000
00000380: 0000 0000 0000 0000 0000 0000 0000 0000
00000390: 0000 0000 0000 0000 0000 0000 0000 0000
000003a0: 0000 0000 0000 0000 0000 0000 0000 0000
000003b0: 0000 0000 0000 0000 0000 0000 0000 0000
000003c0: 0000 0000 0000 0000 0000 0000 0000 0000
000003d0: 0000 0000 0000 0000 0000 0000 0000 0000
000003e0: 0000 0000 0000 0000 f802 1ec2 ae7d d7c0
000003f0: d7eb 29c1 c439 71c0 acea 15c3 4cb0 60c3

exp_avg_sq f4 [256, 10]
0.0 0.0 0.0 0.0 0.0 0.0 0.0 0.0
0.0 0.0 590.1038 18.75105 38.778904 3.2600734 7983.7144 18688.635
2.0528662 740.0263 1459.2161 347.25342 1017.52423 33.08342 66.31185 1.8684373
12799.215 31625.07 19.546406 1353.8682 2022.2656 576.146 0.0 0.0
0.0 0.0 0.0 0.0 0.0 0.0 0.0 0.0
1666.7314 54.164707 108.59195 3.1914036 20818.264 51828.39 32.769554 2152.2795
2832.8123 944.4601 0.0 0.0 0.0 0.0 0.0 0.0
0.0 0.0 0.0 0.0 0.0 0.0 0.0 0.0
0.0 0.0 0.0 0.0 0.0 0.0 0.0 0.0
0.0 0.0 0.0 0.0 0.0 0.0 0.0 0.0
41957.113 1342.492 2751.6409 180.02216 560502.5 1.3201652e+06 144.10008 50708.45
104988.59 24352.168 0.0 0.0 0.0 0.0 0.0 0.0
0.0 0.0 0.0 0.0 6053.6685 195.17616 396.90323 19.106562
77284.016 189389.86 69.17047 6892.8975 14427.495 3468.008 0.0 0.0
0.0 0.0 0.0 0.0 0.0 0.0 0.0 0.0
3947.6772 127.98349 257.3966 9.622321 50049.668 122981.46 44.508297 4871.3667
8645.616 2243.0703 5840.0415 189.14592 381.80505 14.532067 73902.93 181755.95
77.62552 7251.559 12805.8545 3315.7646 0.0 0.0 0.0 0.0
0.0 0.0 0.0 0.0 0.0 0.0 4515.4272 146.57603
294.27902 9.956235 57068.51 140292.42 70.76004 5834.6016 8580.72 2558.5168
5246.7524 170.76294 341.22147 11.653721 66357.9 163016.31 74.35383 6527.532
10859.301 2966.3613 11444.401 366.31317 751.589 42.76395 152488.8 359262.97
31.655722 14118.692 27177.291 6614.132 4164.939 134.93703 272.72864 8.07541
50344.285 129329.43 153.7992 5650.0703 6200.782 2369.1877 10399.596 332.11475
685.72046 44.0641 135697.6 326613.88 66.40973 11315.802 24890.16 6018.425
0.0 0.0 0.0 0.0 0.0 0.0 0.0 0.0
0.0 0.0 5125.6494 167.04037 333.46255 9.501006 64970.96 158940.16
77.77571 5859.6123 11157.849 2891.6833 0.0 0.0 0.0 0.0
0.0 0.0 0.0 0.0 0.0 0.0 0.0 0.0
0.0 0.0 0.0 0.0 0.0 0.0 0.0 0.0
0.0 0.0 0.0 0.0 0.0 0.0 0.0 0.0
0.0 0.0 22253.158 711.8701 1463.8448 92.99054 294177.3 698313.06
00000000: 0000 0000 0000 0000 0000 0000 0000 0000
00000010: 0000 0000 0000 0000 0000 0000 0000 0000
00000020: 0000 0000 0000 0000 a586 1344 2702 9641
00000030: 991d 1b42 0ba5 5040 b77d f945 4501 9246
00000040: 2962 0340 af01 3944 ea66 b644 70a0 ad43
00000050: 8d61 7e44 6c55 0442 ab9f 8442 f428 ef3f
00000060: dcfc 4746 2412 f746 0a5f 9c41 c83b a944
00000070: 80c8 fc44 5809 1044 0000 0000 0000 0000
00000080: 0000 0000 0000 0000 0000 0000 0000 0000
00000090: 0000 0000 0000 0000 0000 0000 0000 0000
000000a0: 6857 d044 a9a8 5842 142f d942 f53f 4c40
000000b0: 87a4 a246 6474 4a47 0614 0342 7984 0645
000000c0: ff0c 3145 721d 6c44 0000 0000 0000 0000
000000d0: 0000 0000 0000 0000 0000 0000 0000 0000
000000e0: 0000 0000 0000 0000 0000 0000 0000 0000
000000f0: 0000 0000 0000 0000 0000 0000 0000 0000
00000100: 0000 0000 0000 0000 0000 0000 0000 0000
00000110: 0000 0000 0000 0000 0000 0000 0000 0000
00000120: 0000 0000 0000 0000 0000 0000 0000 0000
00000130: 0000 0000 0000 0000 0000 0000 0000 0000
00000140: 1de5 2347 becf a744 41fa 2b45 ac05 3443
00000150: 68d7 0849 2a27 a149 9f19 1043 7314 4647
00000160: 4c0e cd47 5640 be46 0000 0000 0000 0000
00000170: 0000 0000 0000 0000 0000 0000 0000 0000
00000180: 0000 0000 0000 0000 0000 0000 0000 0000
00000190: 592d bd45 192d 4343 9d73 c643 3dda 9841
000001a0: 02f2 9647 77f3 3848 4857 8a42 2e67 d745
000001b0: fb6d 6146 21c0 5845 0000 0000 0000 0000
000001c0: 0000 0000 0000 0000 0000 0000 0000 0000
000001d0: 0000 0000 0000 0000 0000 0000 0000 0000
000001e0: d6ba 7645 8cf7 ff42 c4b2 8043 07f5 1941
000001f0: ab81 4347 bb32 f047 7f08 3242 ef3a 9845
00000200: 7716 0746 2031 0c45 5580 b645 5b25 3d43
00000210: 0ce7 be43 5983 6841 7757 9047 fd7e 3148
00000220: 4440 9b42 799c e245 6b17 4846 3c3c 4f45
00000230: 0000 0000 0000 0000 0000 0000 0000 0000
00000240: 0000 0000 0000 0000 0000 0000 0000 0000
00000250: 0000 0000 0000 0000 6b1b 8d45 7793 1243
00000260: b723 9343 bd4c 1f41 83ec 5e47 1b01 0948
00000270: 2485 8d42 d054 b645 e112 0646 45e8 1f45
00000280: 05f6 a345 50c3 2a43 599c aa43 a475 3a41
00000290: f39a 8147 1432 1f48 29b5 9442 42fc cb45
000002a0: 34ad 2946 c865 3945 9bd1 3246 1628 b743
000002b0: b2e5 3b44 490e 2b42 33ea 1448 df6b af48
000002c0: eb3e fd41 c59a 5c46 9552 d446 0eb1 ce45
000002d0: 8327 8245 e1ef 0643 445d 8843 e134 0141
000002e0: 49a8 4447 b798 fc47 98cc 1943 9090 b045
000002f0: 42c6 c145 0113 1445 627e 2246 b00e a643
00000300: 1c6e 2b44 a341 3042 6684 0448 bc7a 9f48
00000310: c8d1 8442 35cf 3046 5274 c246 6613 bc45
00000320: 0000 0000 0000 0000 0000 0000 0000 0000
00000330: 0000 0000 0000 0000 0000 0000 0000 0000
00000340: 0000 0000 0000 0000 322d a045 560a 2743
00000350: 35bb a643 1f04 1841 f6ca 7d47 0a37 1b48
00000360: 2a8d 9b42 e61c b745 6557 2e46 efba 3445
00000370: 0000 0000 0000 0000 0000 0000 0000 0000
00000380: 0000 0000 0000 0000 0000 0000 0000 0000
00000390: 0000 0000 0000 0000 0000 0000 0000 0000
000003a0: 0000 0000 0000 0000 0000 0000 0000 0000
000003b0: 0000 0000 0000 0000 0000 0000 0000 0000
000003c0: 0000 0000 0000 0000 0000 0000 0000 0000
000003d0: 0000 0000 0000 0000 0000 0000 0000 0000
000003e0: 0000 0000 0000 0000 51da ad46 b0f7 3144
000003f0: 09fb b644 28fb b942 2aa4 8f48 917c 2a49
