ML/dataset/gnn_ccp_capital_model.pth (torch, 627252 bytes, 21 tensors)

convs.0.att_src f4 [1, 4, 64]
0	0xbe81b958	-0.2533672
1	0xbedf0c2a	-0.43563968
2	0xbf015bbe	-0.5053061
3	0xbe206eb3	-0.15667228
4	0x3e65adb6	0.22429547
5	0xbe94fa5a	-0.29097253
6	0x3e9e8a51	0.30964902
7	0x3e6b3cc7	0.22972403
8	0xbecd6bf4	-0.40121424
9	0x3e012b40	0.12614155
10	0x3e372d33	0.17888336
11	0xbe49e252	-0.1971524
12	0x3c3d82d2	0.0115668345
13	0xbee9c291	-0.45656255
14	0x3f0c2de1	0.54757506
15	0x3e9dce44	0.3082143
16	0x3d87d7fa	0.06632991
17	0x3eb7ef47	0.35924742
18	0x3eb4f1f8	0.35340858
19	0x3ea15376	0.31508988
20	0x3ebf3cc1	0.3735104
21	0xbe92a8f8	-0.28644538
22	0x3e885933	0.26630554
23	0x3e391d8d	0.18077679
24	0xbe361bcc	-0.17784041
25	0xbdf18a95	-0.117940105
26	0x3ef43b6b	0.47701582
27	0x3e7a7b55	0.2446111
28	0x3e7b2f88	0.2452985
29	0xbd5dedac	-0.05418174
30	0x3e982a79	0.29719904
31	0xbeaa5510	-0.33268023
32	0x3e0bcab1	0.1365154
33	0x3e06e130	0.1317184
34	0x3e245b55	0.16050465
35	0x3ec6f0b8	0.3885553
36	0x3df9fefc	0.122068375
37	0x3c6a5537	0.014302543
38	0x3ec1b99a	0.37836915
39	0x3d6fb415	0.05852135
40	0xbe837876	-0.25677842
41	0xbe331215	-0.17487366
42	0xbb9f8ebf	-0.0048693116
43	0xbed8638d	-0.4226345
44	0x3e1bf44a	0.15229908
45	0x3ea29b90	0.3175931
46	0xbf0eca7a	-0.55777705
47	0xbeb9a1ba	-0.362562
48	0x3eb5e01f	0.35522553
49	0xbe9a5167	-0.3014023
50	0x3eefacfe	0.4681167
51	0x3ea581da	0.3232563
52	0xbe0c7876	-0.13717827
53	0xbe9d54f4	-0.30728877
54	0x3ea021c1	0.31275752
55	0x3dce0472	0.100594416
56	0x3e9de006	0.3083498
57	0x3ca5a5f4	0.020220734
58	0x3e8ad859	0.27118185
59	0x3cc33fdc	0.023834161
60	0x3ea8b06e	0.32947105
61	0x3baef634	0.0053394083
62	0x3e224e55	0.15850194
63	0xbd577852	-0.05260498
64	0xbcadd41a	-0.021219302
65	0xbe552284	-0.20813948
66	0xbe34c3cd	-0.17652817
67	0x3df9e52a	0.12201913
68	0x3d11d7a5	0.035606045
69	0x3e339093	0.1753562
70	0x3cc9cf06	0.02463485
71	0x3cc25033	0.023719883
72	0x3c8a4043	0.016876346
73	0x3e15e1e2	0.14636949
74	0xbe225c0d	-0.15855427
75	0x3d9ddc93	0.07708087
76	0x3d2e7f98	0.04260215
77	0x3e569019	0.20953406
78	0xbdb53e44	-0.08849767
79	0x3e592482	0.21205333
80	0xbe19c543	-0.15016656
81	0x3e15d74d	0.14632912
82	0x3e746513	0.23866682
83	0x3cf04440	0.02932942
84	0x3e15e8c6	0.14639577
85	0xbe3cf237	-0.18451773
86	0xbe20bad8	-0.15696275
87	0xbe082ada	-0.13297597
88	0xbe7236bc	-0.23653692
89	0xbb2373aa	-0.0024940767
90	0x3e099edc	0.13439506
91	0xbd83000e	-0.06396495
92	0x3e98ad5e	0.2981977
93	0xbe64a115	-0.22327073
94	0x3e2de9c0	0.169837
95	0x3e4c4729	0.1994902
96	0x3eaa50a3	0.33264646
97	0xbe1fd3ad	-0.15608092
98	0xbe8cf880	-0.2753334
99	0xbdb785d9	-0.08961076
100	0x3e31930a	0.17341247
101	0x3e11984c	0.14218253
102	0x3e8d4611	0.2759252
103	0xbe5bae69	-0.21453251
104	0xbe1b1775	-0.15145667
105	0x3e2eae75	0.17058738
106	0x3d9f44d7	0.07776802
107	0xbe24c99c	-0.16092533
108	0x3e87385d	0.2641019
109	0xbdf797a5	-0.12089471
110	0xbe56b9d2	-0.20969322
111	0x3e05855f	0.13039158
112	0xbe018a1d	-0.12650342
113	0xbe05da39	-0.13071527
114	0xbe28a1bf	-0.16467951
115	0xbcbfb772	-0.023402903
116	0x3e0265f2	0.12734202
117	0x3e6082ae	0.2192485
118	0xbc0c6a2e	-0.008570237
119	0xbdb97d04	-0.09057048
120	0x3e87c0ef	0.26514384
121	0xbdfabc98	-0.12243003
122	0xbe07c934	-0.13260347
123	0xbd33fcc9	-0.043942247
124	0xbe928e8c	-0.2862438
125	0xbe60a34c	-0.21937293
126	0x3e91e78c	0.2849697
127	0xbcd9e13b	-0.026596656
128	0xbd64ce2c	-0.055860683
129	0x3e1f5d4d	0.15562935
130	0x3e1941db	0.14966528
131	0x3eb23af1	0.34810594
132	0x3ea0db59	0.3141735
133	0x3de0321a	0.10947056
134	0x3e8f37b1	0.27972177
135	0x3e5b704b	0.21429555
136	0xbe177850	-0.1479199
137	0x3e34386d	0.1759965
138	0xbed11967	-0.40839693
139	0xbe6874c6	-0.22700796
140	0x3e848f53	0.25890598
141	0xbe5aa1a7	-0.21350728
142	0xbe777d6c	-0.24168938
143	0xbf006f56	-0.50169885
144	0xbe5dfad3	-0.21677713
145	0x3e63dba9	0.22251762
146	0x3e5384c7	0.2065612
147	0xbee5c5e3	-0.44877538
148	0x3dac3150	0.08407843
149	0xbe4af730	-0.19820857
150	0x3dded19c	0.108798236
151	0x3eafcacf	0.34334418
152	0xbe1b715b	-0.1517996
153	0x3c2fad5c	0.010722484
154	0x3ec6d58c	0.38834798
155	0xbe7180de	-0.23584315
156	0xbcf2d711	-0.029643567
157	0xbe90cded	-0.2828211
158	0x3d86b4d8	0.06577462
159	0x3e7a0904	0.24417502
160	0xbe2f5942	-0.17123893
161	0x3e971086	0.29504794
162	0x3e4a71ae	0.19769928
163	0x3dbd99d1	0.09257854
164	0xbeb27b61	-0.34859756
165	0x3c7dda89	0.015493997
166	0x3e5c0efa	0.21490088
167	0x3e97c9c1	0.29646114
168	0x3d1f9824	0.038963452
169	0x3e8963f2	0.26834065
170	0xbe59fc75	-0.21287711
171	0x3e03f9d0	0.12888265
172	0x3eb3b525	0.3509914
173	0xbd873229	-0.06601364
174	0xbe7d835d	-0.24757142
175	0x3e892a0f	0.267899
176	0x3e2ab4fc	0.16670603
177	0x3ec7cc10	0.39022875
178	0xbe928be1	-0.28622344
179	0xbe1eea8a	-0.15519157
180	0xbdafd3c8	-0.08585316
181	0xbd85e5b0	-0.0653795
182	0x3de0055c	0.10938522
183	0xbe6f3155	-0.23358662
184	0x3e0411a5	0.12897356
185	0x3ce9192c	0.028454386
186	0xbda91734	-0.08256379
187	0x3ea2e16c	0.31812608
188	0xbdd53dbd	-0.10412166
189	0x3e0b6015	0.13610871
190	0x3e3e15da	0.18563023
191	0xbe11d429	-0.14241089
192	0x3c6a4d0c	0.014300596
193	0x3d334649	0.0437682
194	0x3d1e1c73	0.03860135
195	0xbd94b2a3	-0.07260635
196	0xbe1594b7	-0.14607511
197	0xbea1e044	-0.31616414
198	0xbe48a005	-0.19592293
199	0x3cc657a5	0.024211714
200	0x3e52c71a	0.20583764
201	0xbea33d54	-0.31882727
202	0xbd9eba67	-0.07750397
203	0x3e98dda9	0.29856613
204	0xbe84ebab	-0.2596105
205	0x3e44f901	0.19235612
206	0xbd87d4d4	-0.066323906
207	0xbea68ae8	-0.32527852
208	0x3cf80e9c	0.030280404
209	0xbe6560a5	-0.22400148
210	0x3d9e550a	0.07731064
211	0xbe92e5ed	-0.28691044
212	0x3e8ca35e	0.2746839
213	0xbd8ba628	-0.06818801
214	0x3e4a0ba9	0.1973101
215	0xbdf783a9	-0.12085659
216	0xbebe6d02	-0.3719254
217	0x3de1e164	0.11029318
218	0x3ebfc261	0.37452987
219	0x3c065a07	0.008200175
220	0xbe542688	-0.20717824
221	0xbd868b01	-0.06569482
222	0xbe54481d	-0.20730634
223	0x3db0bca6	0.08629732
224	0x3ddbe119	0.10736293
225	0x3e79a737	0.24380194
226	0x3e94a455	0.29031625
227	0xbe72a96d	-0.23697443
228	0x3e044a0b	0.1291887
229	0x3e466715	0.1937526
230	0x3d099e5d	0.033598293
231	0xbe8ef975	-0.27924696
232	0xbe643bcb	-0.22288434
233	0x3e3c7a53	0.18406038
234	0x3e86d3e0	0.26333523
235	0x3e6a07af	0.22854494
236	0x3d9f3f93	0.07775798
237	0xbe543924	-0.20724922
238	0xbe84a865	-0.25909725
239	0xbe4b6f00	-0.19866562
240	0x3cf490da	0.029854227
241	0x3b2051df	0.0024462861
242	0x3e4d5977	0.2005366
243	0xbeac710a	-0.33679992
244	0x3d99014b	0.0747095
245	0x3e8f9b39	0.28048113
246	0xbeb03b64	-0.3442031
247	0xbeb21bf8	-0.34786963
248	0xbe271c9e	-0.1631951
249	0x3c541bfa	0.012946123
250	0x3eb2e701	0.34941867
251	0x3dec9433	0.11551704
252	0x3e6840aa	0.22680917
253	0x3e7e9787	0.2486249
254	0x3e577444	0.21040446
255	0xbea1698d	-0.3152584

convs.0.att_dst f4 [1, 4, 64]
0	0xbe558c8a	-0.20854393
1	0x3ddb3408	0.107032835
2	0x3d7cefc0	0.06175208
3	0xbcd2078a	-0.02563836
4	0x3dc767c7	0.09736591
5	0x3ec1673a	0.37774068
6	0xbe5c9e95	-0.21544869
7	0xbd3bdc84	-0.045864597
8	0x3d1c473c	0.038153872
9	0x3ce26e51	0.027640494
10	0x3e161ee0	0.14660215
11	0x3e603aab	0.2189738
12	0x3c973b2b	0.01846083
13	0x3e3edd35	0.18639071
14	0x3e8edb6c	0.2790178
15	0x3df866c8	0.12128979
16	0x3d25fab3	0.04052229
17	0xbe255f46	-0.16149625
18	0x3de6e1e8	0.11273557
19	0x3d2a3386	0.041553043
20	0xbcc0109b	-0.023445418
21	0xbdba0b71	-0.090842135
22	0x3d9183e2	0.07105233
23	0xbe82d713	-0.25554714
24	0x3e3ce35c	0.18446106
25	0x3e1efedd	0.1552691
26	0x3e5c42e5	0.21509893
27	0xbc7d5209	-0.015461453
28	0xbe5462a5	-0.20740755
29	0xbe5fb403	-0.21846013
30	0xbe3ac429	-0.18238892
31	0x3e1393b1	0.14411809
32	0xbebc7b2b	-0.3681272
33	0x3df9d4f0	0.12198818
34	0x3d2939cf	0.041314896
35	0xbeb1d821	-0.34735206
36	0x3ea403f7	0.32034275
37	0x3e1ca00f	0.15295433
38	0x3e8f26b9	0.2795923
39	0x3d8cd7dc	0.068771094
40	0x3da55028	0.08071929
41	0xbe42cba8	-0.19023001
42	0xbe3d8c93	-0.18510656
43	0x3ca10964	0.019657798
44	0x3eb7bf49	0.35888126
45	0xbdde07fe	-0.10841368
46	0x3a889728	0.0010421025
47	0xbe302a5f	-0.17203663
48	0xbe8ed59c	-0.27897346
49	0xbdce96f6	-0.10087387
50	0xbe212937	-0.15738378
51	0xbe37258b	-0.17885415
52	0xbd986ae2	-0.07442261
53	0xbcc3a8a2	-0.023884121
54	0x3c35b2a8	0.011089958
55	0x3e8ae9df	0.27131554
56	0xbd9e12ab	-0.077184044
57	0xbda089a5	-0.078387536
58	0xbe4e6194	-0.2015441
59	0xbe8dc0bf	-0.27686116
60	0x3e3384d5	0.1753114
61	0x3eeb907b	0.46008667
62	0xbeda45da	-0.42631418
63	0xbe720b0a	-0.23637024
64	0xbe8ebff0	-0.27880812
65	0xbd08c006	-0.033386253
66	0xbe5daf1b	-0.21648829
67	0xbd5129a7	-0.051065113
68	0x3e83077e	0.25591654
69	0x3e03cf53	0.12872057
70	0xbe5f0762	-0.2178016
71	0xbedafacd	-0.4276947
72	0x3eb8c498	0.3608749
73	0x3ed69261	0.41908553
74	0x3d361ae7	0.04445925
75	0xbe250447	-0.16114913
76	0x3e339b0e	0.17539617
77	0x3e93f4b9	0.28897646
78	0xbd04bcfe	-0.0324068
79	0x3eb9097d	0.3614005
80	0xbe6f0e29	-0.23345245
81	0x3c8860fb	0.016647806
82	0x3e3a7dc4	0.18212038
83	0xbe0f31e0	-0.1398387
84	0xbd69b63d	-0.05705856
85	0xbe2841c3	-0.16431336
86	0xbe4931af	-0.19647859
87	0x3e09c3ba	0.1345357
88	0x3e8cff6e	0.27538627
89	0xbeaf1eb0	-0.342031
90	0xbe5a17b2	-0.21298102
91	0xbc3010d8	-0.010746203
92	0x3d4bf1b7	0.049791064
93	0xbead116a	-0.33802348
94	0xbe7bbd83	-0.24584012
95	0x3e34085a	0.17581311
96	0x3dff6eb4	0.12472287
97	0x3dd3c5d2	0.103404656
98	0xbe251df4	-0.16124707
99	0xbe99fd67	-0.30076143
100	0xbd3a4edc	-0.045485362
101	0x3e3af04b	0.18255727
102	0x3d2b101d	0.041763414
103	0x3d009b71	0.03139824
104	0xbd18a1f5	-0.03726383
105	0x3da1de3a	0.079037145
106	0x3e612dfa	0.21990195
107	0x3d5a6206	0.05331614
108	0xbe061d86	-0.130972
109	0xbc8cfb34	-0.017209627
110	0xbe990354	-0.29885352
111	0xbcdf9d25	-0.027296612
112	0xbe12e2f8	-0.14344394
113	0x3e914816	0.2837531
114	0xbee03a86	-0.4379465
115	0x3dbbe75f	0.0917499
116	0xbdfe78ff	-0.12425422
117	0x3e5a1831	0.21298291
118	0x3d6e23a3	0.058139455
119	0xbdb3c97f	-0.08778667
120	0x3e2a4e03	0.16631322
121	0x3ea83b42	0.3285771
122	0x3dec5fbc	0.115416974
123	0xbeb42a44	-0.35188496
124	0xbe3bee36	-0.18352589
125	0x3e69dd18	0.22838247
126	0x3e493ef4	0.19652921
127	0x3ce26e40	0.027640462
128	0x3d56aafe	0.052409165
129	0xbda3f1fb	-0.080051385
130	0x3d2cca83	0.042185318
131	0xbda52b85	-0.08064941
132	0x3e70f9a6	0.23532733
133	0xbdde8994	-0.10866085
134	0xbe2528df	-0.16128872
135	0x3e378af6	0.17924103
136	0x3d108685	0.035284538
137	0x3e2d9d4f	0.1695454
138	0x3ea1a4d7	0.31571075
139	0x3cd94aa2	0.026524846
140	0xbeb13a53	-0.3461481
141	0x3d7d70c3	0.061875116
142	0x3eab019e	0.3339967
143	0x3e5cdcca	0.215686
144	0x3e45f3dd	0.19331308
145	0xbe8c1781	-0.27361682
146	0xbec3a458	-0.38211322
147	0xbe6e950f	-0.23299049
148	0xb9ee2e72	-0.00045429502
149	0x3e9c4e5b	0.3052853
150	0x3df9f5c2	0.12205078
151	0x3cb2d4aa	0.021829922
152	0x3d3da0f3	0.04629607
153	0xbdf348d8	-0.11879128
154	0xbdf43064	-0.11923292
155	0xbde08dec	-0.109645694
156	0x3e4dd5c6	0.2010108
157	0x3eaa0221	0.3320475
158	0x3eb50114	0.35352385
159	0x3d41b368	0.047290236
160	0xbe8c9cde	-0.2746343
161	0x3e19bca4	0.15013367
162	0x3e36e804	0.17861944
163	0xbd3b0c01	-0.045665745
164	0x3d034893	0.032051634
165	0x3e3432e6	0.17597541
166	0xbe10c20d	-0.14136524
167	0x3d4acd43	0.04951216
168	0x3d97f724	0.07420185
169	0x3e528510	0.20558572
170	0x3dc7c952	0.09755196
171	0x3e94944c	0.29019392
172	0x3e31b62d	0.17354651
173	0xbd9edff5	-0.0775756
174	0x3e3d01d7	0.18457733
175	0xbd971486	-0.073769614
176	0xbe88ec9f	-0.26743028
177	0x3d347269	0.044054423
178	0x3d359af8	0.044337243
179	0xbd364f9c	-0.044509515
180	0xbe65a73e	-0.22427079
181	0xbe4d2ec4	-0.20037371
182	0x3dd8726b	0.105686985
183	0x3dc031d7	0.09384506
184	0x3d5d4b60	0.05402696
185	0x3e134568	0.14381945
186	0x3eb2aa92	0.3489576
187	0xbec2af35	-0.38024297
188	0xbdbb8245	-0.09155706
189	0x3d96425f	0.07336878
190	0xbecc2921	-0.3987513
191	0x3eb72894	0.35773146
192	0xbcb8c4f7	-0.022554858
193	0xbe671f93	-0.22570638
194	0x3ec42b08	0.3831408
195	0x3e8d5359	0.27602652
196	0x3eb5e88e	0.35528988
197	0x3e0e309b	0.13885729
198	0x3d736f43	0.05943228
199	0x3ea24ca5	0.316991
200	0x3d8efee8	0.06982213
201	0x3df358c8	0.11882168
202	0x3d96380b	0.07334908
203	0xbe9ff5d5	-0.31242242
204	0xbe50cdfe	-0.2039108
205	0x3e9d4cb2	0.30722576
206	0xbe71fd7b	-0.23631851
207	0x3e74cac6	0.23905477
208	0x3e181f0c	0.14855593
209	0xbdef79c6	-0.11693148
210	0x3d5076e0	0.050894618
211	0xbd94ea11	-0.07271207
212	0x3ea48a29	0.32136658
213	0x3d3dd96c	0.046349928
214	0x3e23087e	0.15921208
215	0xbe870407	-0.2637026
216	0x3d507afe	0.050898544
217	0x3ddeec3b	0.10884901
218	0xbd1f8862	-0.038948424
219	0xbd739372	-0.059466787
220	0xbde192eb	-0.110143505
221	0x3e3a16a8	0.18172705
222	0x3ca44653	0.020053064
223	0xbded350b	-0.11582383
224	0x3dc5a267	0.096501164
225	0xbdeca85e	-0.11555551
226	0xbe190637	-0.14943777
227	0x3e3f20c1	0.18664838
228	0x3dc6c61d	0.09705756
229	0x3d2bd104	0.04194738
230	0x3e68bbe9	0.22727932
231	0xbe7d404f	-0.24731563
232	0x3e0cdbcd	0.13755722
233	0x3e199338	0.14997566
234	0xbe0b61b0	-0.13611484
235	0xbd81b280	-0.06332874
236	0x3e823b4d	0.25435868
237	0x3e31def5	0.17370208
238	0xbe1c5f60	-0.15270758
239	0x3d328e86	0.043592952
240	0xbeaa1b16	-0.3322379
241	0x3e7233bd	0.23652549
242	0x3ea5a0e4	0.32349312
243	0xbddcb6b5	-0.10777036
244	0xbbcdd18f	-0.006281085
245	0xbe268f28	-0.16265547
246	0x3e6d2853	0.23159914
247	0xbe31d51d	-0.17366453
248	0x3c802c96	0.01564626
249	0xbe22371a	-0.15841332
250	0xbbe09a80	-0.0068543553
251	0x3e188add	0.14896722
252	0x3e2762fb	0.16346352
253	0xbe0b0735	-0.13576968
254	0xbe028b4f	-0.12748455
255	0x3e3abb56	0.18235525

convs.0.bias f4 [256]
0	0x3d187c84	0.037228122
1	0x3dbc074b	0.091810785
2	0x3d6f7415	0.058460314
3	0x3d1af536	0.037831508
4	0xbbd6532a	-0.0065406756
5	0x3b044f76	0.0020188964
6	0xbe04e57f	-0.12978171
7	0xbc65ef39	-0.014034086
8	0x3d6bb6c4	0.057547346
9	0xbd7e5137	-0.06208917
10	0xbdbffbea	-0.09374221
11	0xbb753926	-0.0037418096
12	0x3d56e311	0.05246264
13	0x3e2e60fb	0.17029183
14	0xbd8bdce8	-0.06829244
15	0xbd2fab25	-0.042887826
16	0xbccc9049	-0.024971144
17	0xbd4058f5	-0.046959836
18	0xbcd01646	-0.025401246
19	0x39ed2b70	0.00045236526
20	0xbcdb5fcb	-0.026779076
21	0x3d69958a	0.057027377
22	0xbdb260bd	-0.087098576
23	0xbe29eb52	-0.16593674
24	0x3d1d17be	0.03835272
25	0x3cd40db3	0.025885439
26	0xbde94c4b	-0.11391505
27	0xbd0d2c8a	-0.034466304
28	0xbdab9272	-0.083775416
29	0x3d168cb4	0.03675528
30	0xbc0122c8	-0.007881828
31	0x3dcc513e	0.09976433
32	0xbc81b13a	-0.015831579
33	0xbd2267d3	-0.039649796
34	0xbdeb9ccd	-0.11504517
35	0xbd808573	-0.062754534
36	0x3c38672c	0.011255067
37	0xbc5a9ffa	-0.013343805
38	0xbd64cb16	-0.05585774
39	0x3cce9de4	0.025221772
40	0x3d70a74e	0.058753304
41	0xbcf8d7de	-0.030376371
42	0x3d316462	0.043308623
43	0x3d754e17	0.059888925
44	0xbce64a6b	-0.028111657
45	0xbd91f3bc	-0.07126567
46	0x3dc7e2b1	0.09760035
47	0x3d2ececb	0.042677682
48	0x3c5d8c05	0.013522153
49	0x3d8d7b75	0.06908313
50	0xbd83a696	-0.06428258
51	0xbd267d41	-0.040646795
52	0x3d52d2df	0.051470634
53	0x3d9cc762	0.07655217
54	0xbdc7078b	-0.097182356
55	0x3d6785ff	0.056524273
56	0xbd9cd6ca	-0.07658155
57	0xbafbca1a	-0.0019210011
58	0xbdc1f2d0	-0.09470141
59	0xbcc9afb2	-0.02461991
60	0xbd8fc906	-0.07020764
61	0xbc88bce2	-0.016691629
62	0xbd0a8083	-0.033813965
63	0xbd1540c5	-0.036438722
64	0xbd135fff	-0.03598022
65	0xbd834798	-0.0641014
66	0x3c81240b	0.015764257
67	0xbc2228f1	-0.0098974565
68	0x3b9fcae1	0.00487648
69	0xbbdad656	-0.006678383
70	0x3cd29668	0.025706485
71	0x3c648c8c	0.013949525
72	0xbcb24fa0	-0.021766484
73	0x3b69060c	0.0035556583
74	0x3b8ac2fa	0.004234669
75	0x3c5264a5	0.012841378
76	0xbcefd771	-0.029277535
77	0x3d084d95	0.033277113
78	0x3c491b6a	0.012274602
79	0xbc2df2ba	-0.010616953
80	0x3cea3296	0.028588574
81	0xbcd3aca8	-0.025839165
82	0x3c4aeafe	0.012385128
83	0x3c0c0b55	0.008547624
84	0xbd663b5a	-0.056208946
85	0xbcc9e8ee	-0.024647202
86	0xbce69f0c	-0.028152011
87	0xbd23f243	-0.04002596
88	0x3b9292a6	0.0044730483
89	0x3baea2ec	0.0053294804
90	0xb897e91b	-7.2436604e-05
91	0xbd090519	-0.033452127
92	0xbaefefd3	-0.0018305726
93	0x3d4d8144	0.050172105
94	0x3c0fed0b	0.008784543
95	0xbd8145a1	-0.06312109
96	0xbcae02f3	-0.02124164
97	0x3c66ff6a	0.014098981
98	0xbd868747	-0.06568771
99	0x3c97f015	0.018547097
100	0x3c9477ed	0.018123591
101	0x3ce0bf82	0.027435068
102	0x3b32281e	0.0027184556
103	0xbc5f824f	-0.013641908
104	0x3d6e98ff	0.058251377
105	0x3c03bede	0.008041112
106	0xbb197a68	-0.0023418907
107	0x3bd76aeb	0.006574025
108	0xbc068612	-0.008210676
109	0x3c621752	0.013799505
110	0xbca0c1a5	-0.019623587
111	0x3d37c1c5	0.044862527
112	0x3d3f08c6	0.046639226
113	0xbd6f32d7	-0.058398094
114	0x3d24351e	0.04008972
115	0xbcf52ec8	-0.029929534
116	0xbbf087a7	-0.00734039
117	0x3ce0baed	0.027432883
118	0x3cf38387	0.029725803
119	0xbc0d5356	-0.008625826
120	0xbc83aa0a	-0.016072292
121	0x3cef3493	0.029199874
122	0x3cca0ffa	0.024665821
123	0x3cd24487	0.025667442
124	0x3cf20c56	0.029546898
125	0xbd0fb912	-0.035088606
126	0xbcfb4b81	-0.030675652
127	0xbbea358c	-0.0071474966
128	0x3c35a2e0	0.011086196
129	0xbd4414c5	-0.04787137
130	0xbd326744	-0.043555513
131	0xbcb8979d	-0.022533232
132	0xbd2e7cf8	-0.04259965
133	0xbd2601dc	-0.040529117
134	0xbd1e5e65	-0.03866424
135	0x3c7f48b3	0.015581298
136	0x3cfe6a4b	0.031056544
137	0xbcbe5978	-0.023236021
138	0x3d27817b	0.040894967
139	0x3b06a2d5	0.0020543833
140	0xbb5817db	-0.0032973203
141	0xbbe6cad5	-0.0070432224
142	0x3c447860	0.01199159
143	0x3c85ace4	0.016317792
144	0x3c03c149	0.008041688
145	0xbc9a8e41	-0.01886666
146	0xbce898e3	-0.028393215
147	0x3ce702c9	0.02819957
148	0xbd099b5b	-0.033595424
149	0x3d914f33	0.07095184
150	0x3c9443c7	0.018098725
151	0xbbabaa64	-0.005238818
152	0x3d57f1dd	0.052720893
153	0xbd79d4c5	-0.06099393
154	0xbd80bddd	-0.062862135
155	0x3ca6972e	0.02033576
156	0xbc095418	-0.008381866
157	0x3d741e1b	0.059599023
158	0xbb4d31c7	-0.0031310187
159	0xbd1b3317	-0.03789052
160	0x3d13ddc2	0.036100157
161	0xbd688dd1	-0.05677587
162	0xb8c82d8a	-9.5452255e-05
163	0xbbe29205	-0.0069143795
164	0x3d52277a	0.05130718
165	0xbb9c9a61	-0.0047791456
166	0xbc265467	-0.010151959
167	0xbd7d9b44	-0.06191565
168	0xbc900ec8	-0.017585173
169	0xbc2840a7	-0.010269321
170	0x3c32f77f	0.0109232655
171	0xbce52c26	-0.027975153
172	0xbceb380c	-0.028713249
173	0x3d00357f	0.031301018
174	0xbb30c1f2	-0.002697107
175	0xbd72c258	-0.059267372
176	0xbd65bf71	-0.056090776
177	0xbd8291d4	-0.06375471
178	0x3d6caf30	0.05778426
179	0x3d257590	0.04039532
180	0x3d1360bc	0.035980925
181	0x3c93394a	0.017971653
182	0xbcad23f8	-0.021135315
183	0x3d13904f	0.036026295
184	0xbc8efc47	-0.01745428
185	0x3cd4e1bc	0.025986545
186	0x3c96ed7f	0.018423794
187	0xbc3f3849	-0.011671134
188	0x3cbbbbc2	0.022916678
189	0xbd099e71	-0.033598367
190	0xbdb51ea5	-0.088437356
191	0x3caf3d12	0.021391425
192	0xbd6058fb	-0.05477236
193	0xbca5610d	-0.020187879
194	0x3c431470	0.011906728
195	0xbd6713d8	-0.05641541
196	0xbca60a1d	-0.020268494
197	0x3b73420b	0.0037118222
198	0x3d9ee3ef	0.07758319
199	0x3dac9196	0.08426206
200	0x3cb9f8f2	0.022701714
201	0x3d86738c	0.065650076
202	0x3db772aa	0.08957417
203	0xbd52b7de	-0.05144488
204	0x3d0c2166	0.03421154
205	0x3ca50efc	0.020148747
206	0x3d00dbcc	0.031459615
207	0x3d32614d	0.043549825
208	0xbd05eb0f	-0.032694872
209	0x3d6a6ed8	0.057234615
210	0xbc46d8b5	-0.012136628
211	0x3cf5ea75	0.030019024
212	0xbcb0796f	-0.021542279
213	0x3cbcd729	0.023051815
214	0xbd90d765	-0.07072333
215	0xbd056143	-0.03256346
216	0xbd422105	-0.04739477
217	0xbe04fa20	-0.1298604
218	0xbdc3d4f4	-0.09562102
219	0xbd06c2c9	-0.032900605
220	0x3cc49ca1	0.024000468
221	0x3d4092cb	0.047014993
222	0xbd14bebb	-0.036314707
223	0xbc4802e4	-0.01220772
224	0xbd282503	-0.041050922
225	0xbcf55da7	-0.029951883
226	0xbd1a35e9	-0.03764907
227	0x3d1f00dd	0.038819183
228	0x3cdb4935	0.026768306
229	0xbd79342c	-0.06084077
230	0xbb8184f3	-0.0039526164
231	0xbdc0622d	-0.093937255
232	0x3caa8fca	0.020820517
233	0xbce0b96d	-0.027432168
234	0xbd0234de	-0.0317887
235	0xbdc2de73	-0.09515085
236	0xbd684da5	-0.056714673
237	0x3d2b0cfc	0.04176043
238	0xbc68187c	-0.014165994
239	0xbba18510	-0.0049291924
240	0xbd4aca22	-0.049509175
241	0xbd59d613	-0.053182673
242	0xbca8af51	-0.02059141
243	0x3c93b5f7	0.018031104
244	0xbc938663	-0.018008417
245	0xbd39e4d3	-0.04538424
246	0x3b73ae34	0.003718269
247	0x3dad758a	0.084696844
248	0x3d3377d7	0.04381546
249	0x3c123c43	0.0089255
250	0xbd75658d	-0.0599113
251	0xbcfe2e83	-0.031028038
252	0xbb5a56bc	-0.0033315858
253	0xbd0592fd	-0.032610882
254	0xbd25fe1e	-0.04052555
255	0x3cc5e267	0.024155809

convs.0.lin.weight f4 [256, 10]
0	0xbe5ded93	-0.21672659
1	0x3da17507	0.07883649
2	0x3ea34a1d	0.3189248
3	0xbe01595f	-0.12631749
4	0xbd371a11	-0.044702593
5	0x3dbd3eba	0.0924048
6	0x3c2261ca	0.00991101
7	0x20587168	1.8333435e-19
8	0xbe09ed07	-0.13469325
9	0x3d79af30	0.060958087
10	0xbd9f1b91	-0.0776893
11	0x3e02cf0b	0.12774293
12	0x3e897437	0.26846477
13	0x3ce3204b	0.02772536
14	0x3dfd14d7	0.123574905
15	0xbe0750bf	-0.13214396
16	0xb9300f23	-0.00016790307
17	0x9ea87383	-1.7835466e-20
18	0xbe957c6e	-0.29196495
19	0x3d504b50	0.050853074
20	0xbdbc4047	-0.091919474
21	0x3c47e54e	0.012200667
22	0x3edab852	0.4271875
23	0xbe61d6a3	-0.22054534
24	0xbcf98f84	-0.030463941
25	0xbcb9e3e7	-0.02269168
26	0x3c48c516	0.01225402
27	0x92c038e1	-1.2130925e-27
28	0xbcee5f69	-0.02909823
29	0xbd122936	-0.035683833
30	0xbe039659	-0.12850322
31	0x3d828f16	0.06374948
32	0x3e9a765e	0.30168432
33	0xbcc71314	-0.02430109
34	0x3ddb58b8	0.10710281
35	0x3d688b67	0.05677357
36	0x3e1175ee	0.14205143
37	0x17d04c22	1.3460904e-24
38	0x3dd88294	0.10571781
39	0x3def444e	0.1168295
40	0xbdd3f706	-0.1034985
41	0xbd83938b	-0.06424626
42	0x3dbc92f0	0.092077136
43	0x3e057fbf	0.13037013
44	0xbe1816a7	-0.14852391
45	0x3e4abbf9	0.19798268
46	0x3d8b9673	0.06815805
47	0x0fd58f5e	2.1058645e-29
48	0x3c3d25a1	0.011544616
49	0x3d6c1ee8	0.057646662
50	0x3e159598	0.14607847
51	0x3e0cb47a	0.13740721
52	0x3ec4b654	0.38420355
53	0xbe090143	-0.13379388
54	0xbd6901fa	-0.05688665
55	0xbd68cbc3	-0.056834947
56	0x3e144740	0.14480305
57	0x155654e6	4.328393e-26
58	0xbe3b6890	-0.18301606
59	0xbe61b2d8	-0.2204088
60	0x3d980467	0.07422715
61	0xbe2e7a24	-0.1703878
62	0xbedb8246	-0.42872828
63	0x3ddae45e	0.10688089
64	0xbe061339	-0.1309327
65	0x3e03b13d	0.1286058
66	0xbda7b16f	-0.0818814
67	0x942603e5	-8.381626e-27
68	0x3e6fb19e	0.234076
69	0xbe41dbd9	-0.18931521
70	0x3e16fcb3	0.14744835
71	0xbda1f3be	-0.07907818
72	0xbe586c4f	-0.21135066
73	0x3e659716	0.22420916
74	0xbd83de05	-0.06438831
75	0xbce5083a	-0.027958024
76	0x3d89c47e	0.06726931
77	0x12ffea42	1.6150511e-27
78	0x3e0c72aa	0.13715616
79	0x3dc17434	0.09445992
80	0xbe36531b	-0.1780514
81	0x3c7ac478	0.015305631
82	0x3eca2aa3	0.39485654
83	0xbd67050a	-0.05640129
84	0xbdaa61ea	-0.08319457
85	0x3d1e4679	0.038641427
86	0xbdb547ed	-0.088516094
87	0x17114f4d	4.695212e-25
88	0xbd58f35b	-0.052966457
89	0x3c41d802	0.011831285
90	0xbcc4062f	-0.02392873
91	0xbd1803eb	-0.03711311
92	0xbe5777d5	-0.21041806
93	0xbceb1258	-0.02869527
94	0xbde16a2d	-0.110065795
95	0xbdd220d7	-0.1026017
96	0xbb21311f	-0.002459593
97	0x975f0cc5	-7.2071304e-25
98	0x3e2144bb	0.15748875
99	0xbd3f6240	-0.046724558
100	0x3d257739	0.040396903
101	0xbc9bd6b0	-0.01902327
102	0xbeba2071	-0.36352876
103	0x3d8d63f5	0.06903831
104	0xbd8363a6	-0.06415491
105	0xbe237349	-0.15961947
106	0xbde5ef5e	-0.11227296
107	0x9b9297a6	-2.4251674e-22
108	0x3e131ee8	0.14367259
109	0xbe2c5c71	-0.16832139
110	0xbc405e46	-0.011741227
111	0x3e38562d	0.18001623
112	0x3d7b44c4	0.061344877
113	0xbdbca55d	-0.09211228
114	0xbd614513	-0.054997515
115	0xbd7561cf	-0.05990773
116	0xbcfc5533	-0.030802345
117	0x9c86105b	-8.871604e-22
118	0xbdbfaaf0	-0.093587756
119	0xbe4467ab	-0.19180171
120	0x3daf9951	0.08574165
121	0xbdd15fc3	-0.10223343
122	0x3df8d0b4	0.12149182
123	0xbcf23f4e	-0.029571202
124	0xbddb5aeb	-0.107107006
125	0x3e437318	0.19086874
126	0xbd52746d	-0.051380564
127	0x125a51ed	6.888965e-28
128	0xbe3a939d	-0.18220372
129	0x3deaa7a9	0.1145776
130	0x3d6849f3	0.05671115
131	0x3e576738	0.21035469
132	0x3ea56a03	0.32307443
133	0xbe25bdd2	-0.16185692
134	0x3e298077	0.16552912
135	0xbcbb0ab2	-0.022832248
136	0x3df965ca	0.12177618
137	0x96af5c78	-2.833113e-25
138	0xbe7509b9	-0.2392949
139	0xbdb00b22	-0.085958734
140	0x3e7bca99	0.24589004
141	0x3bd70912	0.0065623606
142	0xbebdf94e	-0.37104267
143	0x3e0392ff	0.12849043
144	0xbd995091	-0.0748607
145	0x3c8d79d5	0.017270008
146	0x3c9f318c	0.019432805
147	0x160ed2ed	1.1537225e-25
148	0x3e39f8e2	0.18161348
149	0xbe1700f4	-0.14746457
150	0x3e038853	0.12844972
151	0xbe2f3ce9	-0.17113079
152	0xbe7c7ca8	-0.24656928
153	0x3e855863	0.26043996
154	0x3defc9a8	0.11708385
155	0x3cae5f20	0.021285594
156	0x3dc0a508	0.09406477
157	0xa2f4b1aa	-6.632444e-18
158	0x3e4068b3	0.1878994
159	0x3ad4683f	0.0016205384
160	0x3d8acc24	0.06777218
161	0x3ded99e6	0.116016194
162	0xbdb83e22	-0.08996226
163	0xbcbe7e3d	-0.023253554
164	0xbad0a195	-0.0015917296
165	0xbd42352a	-0.047413982
166	0x3c93d950	0.018047959
167	0x22be5568	5.159003e-18
168	0x3e255833	0.16146927
169	0xbde5a072	-0.11212243
170	0x3dbc48f0	0.09193599
171	0xbd05804f	-0.032593068
172	0xbec51cb2	-0.38498455
173	0x3dfd056b	0.12354549
174	0x3dbae6bf	0.091260426
175	0xbdca0d5f	-0.098658316
176	0x3da91639	0.08256192
177	0x1e4adc17	1.07393045e-20
178	0x3e702630	0.23452067
179	0xbda4f346	-0.08054213
180	0x3e366c03	0.1781464
181	0xbdb9a254	-0.09064165
182	0xbea0e01f	-0.3142099
183	0x3e523b31	0.20530392
184	0x3ca06f08	0.019584194
185	0x3d4c86b5	0.049933154
186	0xbe0ac687	-0.13552295
187	0x1c9c0fa6	1.0327259e-21
188	0x3de731b8	0.1128878
189	0x3dcb8abe	0.09938572
190	0x3e3d0c25	0.18461664
191	0xbc05a187	-0.008156187
192	0xbe1be2f0	-0.15223289
193	0x3e1e3594	0.15450126
194	0x3dc142d3	0.09436574
195	0xbc976f02	-0.01848555
196	0x3dbbdaec	0.091726154
197	0x93301d16	-2.2228664e-27
198	0x3e809f94	0.25121748
199	0xbd9bbe76	-0.07604687
200	0x3e0a1ce1	0.13487579
201	0x3d233265	0.03984298
202	0xbef30933	-0.47467956
203	0x3e1df232	0.15424421
204	0xbdcdfbeb	-0.10057815
205	0xbdb02b64	-0.08602026
206	0xbe2af225	-0.16693933
207	0x1249a39a	6.362607e-28
208	0x3d11e65b	0.035620075
209	0xbe13ec01	-0.14445497
210	0xbe325dda	-0.17418614
211	0x3d688c84	0.05677463
212	0x3dba4b33	0.09096374
213	0xbe31f535	-0.17378695
214	0x3c00e00e	0.007865919
215	0xbcf75a95	-0.03019456
216	0xbd074c5a	-0.0330318
217	0x148ddc86	1.4324343e-26
218	0xbe6acf9e	-0.22930762
219	0xbd4dfc95	-0.05028971
220	0x3d83045c	0.06397316
221	0xbdf1f282	-0.11813833
222	0xbe3e0337	-0.18555914
223	0xbba11e99	-0.0049169776
224	0xbd64f0a5	-0.05589356
225	0x3d515155	0.051102955
226	0xbe05469b	-0.13015215
227	0x1c6c2d62	7.8144506e-22
228	0x3de5824e	0.11206494
229	0xbd0e3f1c	-0.034728155
230	0xbd45d72d	-0.04830091
231	0xbe03f9b9	-0.1288823
232	0xbea9786b	-0.33099684
233	0xbd9e52cb	-0.07730635
234	0x3d5b053a	0.05347178
235	0x3ba8c0c3	0.005149932
236	0x3dea60af	0.11444222
237	0x992ec8b6	-9.0361224e-24
238	0x3e811281	0.2520943
239	0xbd3f3d9c	-0.046689615
240	0x3db4fc63	0.088372014
241	0x3e8b032c	0.27150857
242	0x3ea4c3d8	0.32180667
243	0xbdff1294	-0.12454715
244	0x3d40a25a	0.04702983
245	0xbe5b9123	-0.21442084
246	0xbcc093d4	-0.02350799
247	0x1417776d	7.647104e-27
248	0x3d50add6	0.050947033
249	0x3cd6c1cb	0.026215455
250	0xbd626340	-0.055270433
251	0xbce6df8a	-0.028182764
252	0x3e207f84	0.15673643
253	0xbd2c84a2	-0.042118676
254	0xbd97c395	-0.07410351
255	0xbd5af30b	-0.05345444

convs.1.att_src f4 [1, 4, 64]
0	0x3e389ed7	0.18029343
1	0xbe315dea	-0.17320982
2	0x3e03a4a4	0.12855774
3	0x3d870ae5	0.06593875
4	0xbe9e9f5e	-0.30980963
5	0x3e7c3c7d	0.2463245
6	0xbeb8446f	-0.3598971
7	0x3cc76e00	0.024344444
8	0x3e2ac29b	0.16675799
9	0x3ed05ece	0.4069733
10	0xbe627372	-0.22114351
11	0xbd3b12af	-0.045672115
12	0x3d904217	0.07043856
13	0x3eccec25	0.40023914
14	0xbdf33eb0	-0.11877191
15	0x3e73e145	0.23816402
16	0x3dc9ca6e	0.098530635
17	0x3e316e26	0.17327175
18	0xbee48c81	-0.44638446
19	0x3e508608	0.20363629
20	0x3e0cdb6a	0.13755575
21	0x3ea1123b	0.3145922
22	0xbead72d2	-0.33876663
23	0xbdbd5e70	-0.09246528
24	0xbe72f8a6	-0.23727664
25	0x3defec13	0.117149495
26	0xbe9e2a2d	-0.30891553
27	0xbc4ecf60	-0.012622684
28	0xbe3800b7	-0.17969023
29	0xbd5bd53c	-0.053670153
30	0x3e630f3a	0.22173777
31	0xbd73cbfe	-0.059520714
32	0x3ebfb085	0.3743936
33	0xbdc36f7b	-0.095427476
34	0xbe490fcf	-0.19634937
35	0xbc329395	-0.010899444
36	0xbe829fdf	-0.25512597
37	0x3e899b47	0.2687628
38	0xbd36ce46	-0.04463031
39	0x3d7602e2	0.060061343
40	0x3e7d504b	0.2473766
41	0xbd4cdc25	-0.050014634
42	0xbe0465a5	-0.129294
43	0x3e07ee3b	0.13274471
44	0xbe5d7dd0	-0.21630025
45	0xbe83e97d	-0.25764075
46	0x3db50b13	0.08840003
47	0xbe23a839	-0.1598214
48	0x3e8ad3c8	0.271147
49	0xbde0445f	-0.10950541
50	0xbeb7af6f	-0.35876033
51	0xbe8c6d7d	-0.27427283
52	0xbde442a1	-0.11145521
53	0xbe2941e3	-0.1652904
54	0xbe14519d	-0.14484258
55	0x3d6ced2b	0.05784337
56	0x3db31379	0.087439485
57	0xbe1d9b10	-0.15391183
58	0x3ec1ae00	0.37828064
59	0xbd2fcb6b	-0.042918604
60	0xbd24d96b	-0.04024641
61	0x3e6c9990	0.23105454
62	0x3e21e66a	0.15810552
63	0xbe9f2372	-0.3108173
64	0x3e81311b	0.25232777
65	0xbe545b1b	-0.20737879
66	0xbde8b42e	-0.113624915
67	0x3cec7c71	0.028867932
68	0x3e454e1e	0.1926808
69	0x3e182f29	0.1486174
70	0x3d99b6ff	0.07505607
71	0x3e5316d8	0.20614183
72	0x3e01395f	0.12619542
73	0x3d36e9c5	0.044656534
74	0x3e02b980	0.12766075
75	0xbd6123dd	-0.054965843
76	0x3e97796f	0.29584834
77	0x3d0ced1f	0.034405824
78	0xbd8845ff	-0.06653976
79	0x3de958a6	0.113938615
80	0xbe94fa5c	-0.2909726
81	0xbe0712f5	-0.13190825
82	0xbe94e365	-0.29079738
83	0x3e22dd20	0.15904665
84	0x3c9e6203	0.019333845
85	0xbe62b72e	-0.2214019
86	0x3e853400	0.26016235
87	0xbe872fe5	-0.26403728
88	0xbd5c1860	-0.053734183
89	0x3e7520c0	0.23938274
90	0x3d1ae675	0.037817437
91	0x3d882af4	0.06648818
92	0x3ddd6233	0.10809746
93	0x3d7fb2ef	0.062426504
94	0xbe94d973	-0.2907215
95	0xbe9a12ae	-0.30092376
96	0x3e11806f	0.1420915
97	0xbced7c7b	-0.028990021
98	0x3cf86f00	0.030326366
99	0xbd60f905	-0.054924984
100	0x3dae1350	0.08499777
101	0xbd9e9b43	-0.077444576
102	0xbe0fbace	-0.14036104
103	0x3e30d570	0.1726892
104	0xbea889c1	-0.32917598
105	0xbe93ded8	-0.28880954
106	0x3dfff8cd	0.12498627
107	0x3d89967e	0.06718157
108	0x3df72a38	0.120685995
109	0x3e773cfe	0.2414436
110	0xbe5910b6	-0.21197781
111	0xbc09e48c	-0.008416306
112	0x3e096f9f	0.13421486
113	0x3da7d799	0.08195419
114	0xbdbc750a	-0.09202011
115	0x3df0f084	0.11764625
116	0x3df48dab	0.119410835
117	0x3e0376e6	0.12838325
118	0x3e773f96	0.2414535
119	0xbea7d1ad	-0.32777157
120	0xbe92b19c	-0.2865113
121	0xbd0cb6e7	-0.034354117
122	0xbdad6c12	-0.084678784
123	0x3decdd09	0.115655966
124	0x3c91a44c	0.017778538
125	0x3e6013ce	0.21882555
126	0x3e372c02	0.17887881
127	0xbdc94a65	-0.09828643
128	0xbd6fc9e0	-0.058542132
129	0xbe216091	-0.15759493
130	0xbe43fc1b	-0.1913914
131	0x3d9d7bc1	0.0768962
132	0xbd82baf6	-0.06383316
133	0x3dc172f2	0.09445752
134	0x3e0df398	0.13862455
135	0xbe28ab3b	-0.16471569
136	0xbe907c07	-0.28219625
137	0xbe182a4b	-0.14859883
138	0xbe691b38	-0.2276429
139	0x3d2e5c5a	0.042568542
140	0xbe1c6447	-0.15272628
141	0xbe75f451	-0.2401898
142	0x3dac0a86	0.08400445
143	0xbe509d7e	-0.20372579
144	0x3bd635ab	0.0065371594
145	0xbe5575f7	-0.20845781
146	0xbe41c24c	-0.18921775
147	0xbe431d4f	-0.19054149
148	0x3ebeb2ae	0.37245697
149	0xbeb01d11	-0.34397176
150	0x3d9508c2	0.07277061
151	0x3db664eb	0.08905967
152	0x3d115ba4	0.035487786
153	0x3e7a5185	0.2444516
154	0xbe591d3c	-0.21202558
155	0xbd798f24	-0.060927525
156	0xbe36639f	-0.1781144
157	0x3b914d49	0.004434262
158	0xbd663ea6	-0.05621209
159	0xbea9f5ba	-0.33195287
160	0xbe9f71d1	-0.31141523
161	0xbd8726a6	-0.065991685
162	0xbda26dbc	-0.079310864
163	0xbe8ccd0a	-0.27500182
164	0xbd8b1782	-0.06791593
165	0x3e875e4d	0.26439133
166	0xbe703f4a	-0.23461643
167	0x3c30eb85	0.01079834
168	0xbe2ead57	-0.17058311
169	0x3e20a54a	0.15688053
170	0xbe6b6b9e	-0.22990271
171	0xbe22a5f2	-0.15883616
172	0x3dd61232	0.10452689
173	0x3e5867b3	0.21133308
174	0xbdc57460	-0.096413374
175	0xbe966964	-0.29377282
176	0x3c290c0e	0.0103178155
177	0xbbf7564a	-0.0075481283
178	0xbd958bf3	-0.07302084
179	0x3e76d42a	0.24104372
180	0xbe9fedbe	-0.3123607
181	0x3ddd5945	0.108080424
182	0x3d7925d8	0.060827106
183	0x3e93d78f	0.28875396
184	0x3d4a5a01	0.04940224
185	0xbeca4f8b	-0.3951381
186	0xbd242517	-0.040074434
187	0x3e48e9e7	0.19620477
188	0x3e846c23	0.25863752
189	0x3e1f6718	0.15566671
190	0xbe94c704	-0.29058087
191	0xbe792341	-0.24329855
192	0x3e339772	0.1753824
193	0x3dcc1033	0.09964027
194	0xbdb6aaa0	-0.08919263
195	0xbe24d33f	-0.16096209
196	0x3e6ce2fa	0.2313346
197	0x3e6c4afd	0.23075481
198	0xbdb4378c	-0.08799657
199	0xbe3f04b9	-0.18654145
200	0xbd92a99c	-0.07161257
201	0xbdeb925e	-0.11502527
202	0x3e6225de	0.22084758
203	0xbe77a12e	-0.24182579
204	0xbcfcbc27	-0.030851437
205	0x3c6fc258	0.0146337375
206	0xbe7744a5	-0.2414728
207	0x3e2b3c4b	0.16722219
208	0xbde46492	-0.11151995
209	0xbe005053	-0.12530641
210	0xbe82421a	-0.25441056
211	0xbd835d20	-0.064142466
212	0x3e66406d	0.22485514
213	0x3dad851f	0.084726565
214	0xbacb4638	-0.0015508598
215	0xbe3945a5	-0.18092974
216	0x3e7f4d51	0.24931838
217	0xbe0ddc00	-0.13853455
218	0x3d6d0c1d	0.05787288
219	0x3e9eff8b	0.3105434
220	0xbea723fc	-0.3264464
221	0xbdee3a4d	-0.11632214
222	0xbdaa7183	-0.08322432
223	0xbe52e5ff	-0.20595549
224	0x3d1e6cdb	0.03867803
225	0x3e9af3e5	0.30264202
226	0xbd9c27ef	-0.07624804
227	0x3e78dcc1	0.24302961
228	0xbe04365a	-0.12911358
229	0xbe5c6556	-0.21523032
230	0x3da27fcc	0.079345316
231	0x3d43d67e	0.047811978
232	0x3d7ac213	0.06122024
233	0x3e8325b5	0.25614706
234	0x3e20669d	0.15664144
235	0x3e8f47fb	0.27984604
236	0xbe72e02a	-0.23718324
237	0xbe8f8dac	-0.28037775
238	0xbe37fee0	-0.17968321
239	0xbc492660	-0.012277216
240	0xbe21568c	-0.15755671
241	0xbd93b36a	-0.07211955
242	0xbd51d15b	-0.051225048
243	0xbc864d51	-0.01639429
244	0x3db7952b	0.089639984
245	0x3ca89bfa	0.020582188
246	0xbdc21e0b	-0.094783865
247	0x3d53796d	0.051629473
248	0xbe856e1d	-0.26060572
249	0x3dcad6b1	0.099042304
250	0x3d0398a1	0.03212798
251	0x3e2af010	0.16693139
252	0x3d972e75	0.07381908
253	0x3ddeb77a	0.10874839
254	0xbe53e6c2	-0.20693496
255	0x3e848bef	0.2588801

convs.1.att_dst f4 [1, 4, 64]
0	0xbe455b0f	-0.19273017
1	0xbe1d143d	-0.15339752
2	0x3dcf954e	0.101358995
3	0xbe0a49d9	-0.13504733
4	0x3d96ed0f	0.07369434
5	0xbdb79aa6	-0.08965044
6	0xbddd335d	-0.108008124
7	0xbe753dfc	-0.23949426
8	0x3d093f51	0.03350765
9	0x3d7814df	0.06056678
10	0x3d990a99	0.074727245
11	0xbe5a6249	-0.21326555
12	0xbcf43645	-0.029811034
13	0x3c6a31a3	0.014294061
14	0x3e177f18	0.14794576
15	0x3de42793	0.11140361
16	0xbd955d0a	-0.072931364
17	0x3db5d958	0.08879346
18	0xbe4c4afe	-0.19950482
19	0xbebafd13	-0.36521205
20	0x3e495ff5	0.19665511
21	0xbe71ae21	-0.23601581
22	0xbc986192	-0.018601213
23	0x3dfc68da	0.12324686
24	0x3db69805	0.08915714
25	0xbd6215f8	-0.055196732
26	0xbc1335a1	-0.008984954
27	0x3df86a6f	0.121296756
28	0xbe76540d	-0.240555
29	0xbd9a9890	-0.0754863
30	0xbe691a1b	-0.22763865
31	0xbdc24798	-0.09486312
32	0x3e754569	0.23952259
33	0xbe68ac30	-0.22721934
34	0xbe227018	-0.15863073
35	0x3e036330	0.12830806
36	0x3e0f61c7	0.14002143
37	0xbe92737d	-0.28603736
38	0x3ea549fe	0.32283014
39	0xbc3b1671	-0.011418925
40	0x3e10c4df	0.141376
41	0x3982227a	0.0002482122
42	0xbd40ad1e	-0.047040097
43	0x3e5f8128	0.21826613
44	0x3d7f29eb	0.062295835
45	0x3dd544ba	0.10413499
46	0x3e53f5a2	0.2069917
47	0x3df485f9	0.11939616
48	0x3d8c0445	0.06836752
49	0x3daebfa1	0.08532644
50	0xbdcae8b4	-0.09907666
51	0xbd0c1895	-0.03420313
52	0xbe82398a	-0.25434524
53	0xbd1fb367	-0.03898945
54	0xbd8a234f	-0.06745016
55	0x3dae5af4	0.08513442
56	0x3d26a6c7	0.040686395
57	0x3e81958d	0.2530941
58	0xbe0cb1ef	-0.13739751
59	0xbcd65a6e	-0.026166167
60	0x3e7458da	0.23862019
61	0xbdca015c	-0.098635405
62	0x3d1cd2fb	0.038287144
63	0xbcd5f362	-0.02611703
64	0xbd2ac440	-0.041691065
65	0x3e455b61	0.1927314
66	0xbe135bc0	-0.14390469
67	0x3df8b718	0.12144297
68	0x3d99c75e	0.075087294
69	0xbde58080	-0.1120615
70	0x3d566d96	0.052350603
71	0x3d0fd8d9	0.03511891
72	0x3e420506	0.18947229
73	0x3c9dafa6	0.019248795
74	0x3e6d1914	0.23154098
75	0xbe1ffb5f	-0.15623234
76	0x3e6a84e5	0.22902258
77	0x3e344dd0	0.17607808
78	0x3a35d4e7	0.0006936327
79	0x3e6d48a7	0.23172246
80	0x3e11ff3a	0.14257517
81	0x3de03fd7	0.109496765
82	0xbe4dadf7	-0.20085894
83	0xbd98aaf2	-0.0745448
84	0x3db9a23b	0.09064146
85	0xbe58b7d0	-0.21163869
86	0x3dfc5cdb	0.12322398
87	0xbdb2c4b2	-0.08728923
88	0xbe172a99	-0.14762343
89	0x3e258288	0.16163075
90	0x3e1f3628	0.15548003
91	0xbdb02c60	-0.08602214
92	0x3dc67b91	0.09691537
93	0x3e828c34	0.25497591
94	0xbd3e2597	-0.046422567
95	0x3d233387	0.039844062
96	0x3e00b7c2	0.12570098
97	0xbe2c10ba	-0.16803256
98	0xbddf12a3	-0.108922265
99	0xbe21c6ec	-0.15798539
100	0x3e9f6cf1	0.31137803
101	0x3de27090	0.11056626
102	0x3e1a43c1	0.15064909
103	0xbc8dc8c3	-0.017307645
104	0x3e2d6001	0.16931154
105	0xbe39583e	-0.18100068
106	0xbe65d70d	-0.22445317
107	0xbc18d87d	-0.009328959
108	0xbe89daf7	-0.2692487
109	0xbe7ccbef	-0.2468717
110	0xbe45bfff	-0.19311522
111	0xbd6c559b	-0.057698827
112	0x3d8ccd43	0.06875088
113	0xbc32dc8b	-0.010916839
114	0xbe8f866e	-0.2803225
115	0xbe9af26d	-0.3026308
116	0xbebc1521	-0.3673487
117	0xbe359bc3	-0.177352
118	0xbe758367	-0.23975907
119	0xbd3b2c3c	-0.045696482
120	0xbd1d6616	-0.038427435
121	0xbd7fb99d	-0.062432874
122	0x3ea3df99	0.3200653
123	0xbd96b61d	-0.07358954
124	0xbd59679e	-0.053077333
125	0x3d857362	0.06516148
126	0xbc91ee68	-0.017813876
127	0x3cba17c3	0.022716409
128	0x3d62b6f4	0.05535026
129	0xbe0a94e7	-0.13533364
130	0xbe197b4f	-0.14988445
131	0xbd9bcca2	-0.0760739
132	0x3e0e33e9	0.1388699
133	0xbdf91375	-0.12161914
134	0xbdf7dacb	-0.12102278
135	0xbe0737d2	-0.13204888
136	0x3de8d68e	0.11369048
137	0xbe239bda	-0.15977421
138	0x3e4d275d	0.20034547
139	0x3dace537	0.08442157
140	0x3d8c0b1f	0.06838059
141	0xbd4e6511	-0.050389353
142	0x3d07015b	0.032960277
143	0xbc15134f	-0.009098842
144	0x3e5c8652	0.21535614
145	0xbc9b79bc	-0.018978946
146	0xbe163c2f	-0.14671396
147	0x3e12536e	0.14289638
148	0x3c7f66f0	0.015588507
149	0xbe9c286e	-0.30499595
150	0xbdd885b1	-0.105723746
151	0x3e3f6b64	0.1869331
152	0x3e3d94f2	0.1851385
153	0x3c81cefe	0.015845772
154	0x3e7b6758	0.24551141
155	0xbe87f6e5	-0.26555553
156	0x3e54c005	0.20776375
157	0xbe3f5df9	-0.18688191
158	0xbe0a49f6	-0.13504776
159	0xbe09413d	-0.13403793
160	0xbe89a654	-0.2688471
161	0x3dffaf33	0.124845885
162	0xbe22a09e	-0.15881583
163	0x3e060ac8	0.1309005
164	0x3e24ce75	0.16094382
165	0xbe4d92ea	-0.20075575
166	0xbde14211	-0.10998929
167	0x3d519897	0.05117091
168	0x3e21d71f	0.15804718
169	0xbe3e6299	-0.185923
170	0xbdc03a97	-0.09386175
171	0xbe6ecfb7	-0.23321424
172	0xbe598caa	-0.21245065
173	0x3d57bc1c	0.05266963
174	0x3d3492ad	0.044085193
175	0xbdbb5ea7	-0.09148913
176	0x3db0d2fa	0.086339906
177	0xbe875ce9	-0.26438072
178	0xbea2386d	-0.31683674
179	0xbe329190	-0.1743834
180	0xbc68a664	-0.014199827
181	0x3e5664df	0.20936917
182	0x3e655c0b	0.22398393
183	0x3d796e06	0.060895942
184	0xbe6d0e08	-0.23149884
185	0xbe580bc8	-0.21098244
186	0xbd94bacc	-0.07262191
187	0x3e569183	0.20953946
188	0xbd693d53	-0.05694325
189	0xbe714ad4	-0.23563701
190	0xbca2560e	-0.019816425
191	0x3d88da47	0.06682258
192	0x3c088a5e	0.008333771
193	0xbe5c2256	-0.21497473
194	0xbe553029	-0.20819153
195	0xbe748a87	-0.23880969
196	0x3e4ee3f1	0.2020414
197	0xbdd5d5a3	-0.104411386
198	0x3e72fff4	0.23730451
199	0x3e09bea3	0.13451628
200	0xbeb1c5c4	-0.34721196
201	0x3e1b65b7	0.1517552
202	0x3e53f3fe	0.20698544
203	0xbcfa00fb	-0.030518046
204	0xbea28801	-0.31744388
205	0xbe73a011	-0.23791529
206	0xbcb17157	-0.02166049
207	0xbd0c501c	-0.034256086
208	0xbccf165c	-0.025279216
209	0xbd92f921	-0.07176424
210	0x3e2725ef	0.16323064
211	0xbbbb158d	-0.005709356
212	0x3eac8d87	0.33701727
213	0x3e8d8cb5	0.27646413
214	0xbdf92126	-0.12164526
215	0xbe2e74fa	-0.1703681
216	0xbe7037fc	-0.23458856
217	0xbe4edc0c	-0.20201129
218	0xbe11acfb	-0.14226143
219	0xbe4e4a02	-0.20145419
220	0x3e2276ae	0.15865585
221	0x3e0ff5a9	0.14058556
222	0xbea7cfe6	-0.327758
223	0xbe56c914	-0.20975143
224	0x3e4c7522	0.19966558
225	0x3e0db553	0.13838701
226	0x3e2805d4	0.16408473
227	0x3e47382e	0.19455025
228	0x3d85fb95	0.06542126
229	0xbde51156	-0.11184947
230	0xbe466707	-0.1937524
231	0xbe96522d	-0.2935957
232	0xbe65988b	-0.22421472
233	0x3deeecd6	0.116662666
234	0xbe1cd19b	-0.15314333
235	0xbe9b6b8a	-0.30355483
236	0x3e19733a	0.14985362
237	0xbd2b342c	-0.0417978
238	0x3d870ec3	0.065946124
239	0x3d1252db	0.03572355
240	0xbe1b48ef	-0.1516454
241	0xbe3f1065	-0.18658598
242	0xbdcb3409	-0.09922034
243	0x3e5c89a2	0.21536878
244	0xbe63255c	-0.2218222
245	0x3bed8003	0.007247926
246	0xbe37b33d	-0.17939468
247	0xbe73dcf1	-0.23814751
248	0x3c705fcf	0.01467128
249	0xbd9472ec	-0.07248482
250	0x3eb37dbb	0.35056862
251	0xbe8d1f3d	-0.27562895
252	0xbe6cc051	-0.23120238
253	0xbea1a4dc	-0.3157109
254	0xbe38257f	-0.17983054
255	0xbe89668d	-0.26836053

convs.1.bias f4 [256]
0	0xbbf0493f	-0.0073329504
1	0xbcbe5538	-0.023233995
2	0xbd78fc25	-0.06078734
3	0x3ccff99a	0.025387574
4	0x3da7be80	0.08190632
5	0xbc63d297	-0.013905189
6	0xbcbcbd13	-0.023039376
7	0xbbeecd4b	-0.0072876564
8	0x3cbef61e	0.023310717
9	0xbbe37930	-0.006941937
10	0x3ba96593	0.0051695793
11	0xbba986b7	-0.00517353
12	0xbd015634	-0.03157635
13	0xbd92e14f	-0.071718805
14	0x3d35cab3	0.044382762
15	0xbac40a99	-0.0014956772
16	0x3c2e891b	0.010652806
17	0xbca87429	-0.020563202
18	0x3894f0e8	7.102062e-05
19	0xbd5510d3	-0.052017998
20	0xbc588f3a	-0.013217742
21	0xbd7bf852	-0.061516114
22	0xbd47d5ab	-0.048787754
23	0x3d438702	0.047736175
24	0xbbaf51d6	-0.005350332
25	0xbd0ccb0d	-0.03437333
26	0x3c3b1c69	0.011420348
27	0x3bf9f1af	0.007627688
28	0x3b08eb44	0.0020892182
29	0x3c7d5f27	0.015464581
30	0xbcf88c2f	-0.030340282
31	0x3d2be6b4	0.041968063
32	0xbd8963dd	-0.067085005
33	0xb8197f58	-3.659664e-05
34	0xba37ab54	-0.0007006426
35	0xbc9f8ea1	-0.01947719
36	0x3d4c17c4	0.049827352
37	0xbd86273c	-0.06550452
38	0x3cc68039	0.024231063
39	0xbb8c78d0	-0.004286863
40	0x3c8a9242	0.016915444
41	0xbc8056e1	-0.015666427
42	0x3d967d04	0.073480636
43	0xbcafc70a	-0.021457214
44	0xbaba9911	-0.0014236291
45	0xbc72de6c	-0.014823537
46	0xbc6c5659	-0.014424884
47	0xbc5d94f4	-0.013524283
48	0x3c4d0bab	0.012514989
49	0xbb3a202c	-0.0028400524
50	0x3cb88146	0.02252258
51	0x3d078b5a	0.03309188
52	0x3d084a5d	0.033274043
53	0x3cb473fb	0.02202796
54	0x3b14c0ed	0.0022698
55	0x3c540bab	0.012942235
56	0xbcbaa0f6	-0.02278183
57	0x3d74bc3e	0.059749834
58	0xbd8f38eb	-0.06993278
59	0x3d492f47	0.049117353
60	0x3d193025	0.03739943
61	0xbd8963f3	-0.06708517
62	0xbd33a3b8	-0.043857306
63	0x3d9d6cfc	0.07686803
64	0x3cc60aaf	0.024175016
65	0xbb5b0777	-0.0033421197
66	0xbc780274	-0.015137304
67	0x3c9759e9	0.01847549
68	0x3d6c12ce	0.05763512
69	0x3cd9ef44	0.026603349
70	0xbc36aa7b	-0.011149044
71	0xbd2e1b64	-0.04250659
72	0x3afd97de	0.0019347628
73	0x3d35e17a	0.044404484
74	0xbc40f153	-0.011776286
75	0xbd6daf56	-0.05802854
76	0x3b6637ed	0.003512855
77	0xbc5e9342	-0.013584914
78	0x3ce1994f	0.027538924
79	0x3a09b110	0.00052525196
80	0xbcddda5e	-0.027081665
81	0x3b50193b	0.003175332
82	0x3c80f50d	0.01574185
83	0x3d163b74	0.036677793
84	0x3d1733f6	0.03691479
85	0xbd551464	-0.0520214
86	0xbcbb99df	-0.02290052
87	0x3ad0c277	0.0015927096
88	0x3b382cc9	0.0028102866
89	0x3cafdcfd	0.02146768
90	0x3c3ba18b	0.011452089
91	0x3cdf7ec1	0.02728212
92	0xbd47e6e0	-0.048804164
93	0xbccc621c	-0.024949126
94	0xbc8f18dd	-0.01746791
95	0x3ca98f2a	0.020698149
96	0x3cdeab9f	0.027181445
97	0xbd425cd8	-0.047451824
98	0xbb65b7f5	-0.0035052274
99	0xbcfe9097	-0.031074805
100	0xbcfe47c2	-0.031040076
101	0x3c014894	0.007890839
102	0xbd3f607e	-0.04672288
103	0x3c98dfa1	0.018661322
104	0x3ca9dc8b	0.020735046
105	0x3ceb582d	0.028728569
106	0xbc626a7c	-0.013819333
107	0xbc962a9f	-0.01833087
108	0x3c150da9	0.009097495
109	0x3d0c2aa8	0.034220368
110	0xbd579bf0	-0.052638948
111	0x3cfa4622	0.03055102
112	0xbd1802ef	-0.037112173
113	0xbbe87f9d	-0.007095291
114	0x3c6823a4	0.014168654
115	0x3a7caa0a	0.0009638375
116	0x3d316afd	0.043314923
117	0xbd08e99a	-0.033425905
118	0xbcfae55a	-0.030626941
119	0xbba152a6	-0.0049231825
120	0xbcabfc38	-0.02099429
121	0x3cf8227f	0.030289887
122	0xbceaafc4	-0.028648265
123	0x3d82b5a5	0.06382302
124	0x3c184f3a	0.009296233
125	0x3beb80a0	0.007186964
126	0x3c3028ba	0.0107518975
127	0xbbf8108e	-0.007570333
128	0xbb2e6ae4	-0.0026614005
129	0x3b21db9b	0.0024697545
130	0x3a54c8da	0.00081170874
131	0x3d143f20	0.036193013
132	0x3c5108b6	0.0127584245
133	0x3b3bfa5a	0.0028683157
134	0xbd0d677c	-0.03452252
135	0x3d0cb3a1	0.034350995
136	0x39c33acc	0.00037237105
137	0x3d3160c9	0.043305192
138	0xbc0b67cc	-0.008508634
139	0xbbf60af6	-0.007508631
140	0x3baf3316	0.005346666
141	0xbc2bc1fc	-0.010483261
142	0x3c772a99	0.01508584
143	0x3c9cf5f7	0.019160254
144	0x3d411271	0.047136728
145	0x3b88af94	0.004171321
146	0xbcd0908c	-0.02545955
147	0x3cfa2634	0.030535795
148	0xbc8a11d4	-0.016854204
149	0xbbece1f6	-0.007229085
150	0x3b9568c3	0.0045596077
151	0x3caa0844	0.020755894
152	0xbcb60542	-0.022219304
153	0x3b62e1c1	0.0034619423
154	0x3b808374	0.0039219204
155	0xbbeee212	-0.0072901333
156	0x3c307834	0.010770846
157	0x3c72232e	0.014778895
158	0xbc0ef7a1	-0.0087260315
159	0x3cee49be	0.029087897
160	0x3ceefb88	0.029172674
161	0xbb9f84e0	-0.004868135
162	0x3d0fb89b	0.035088163
163	0xbc8fbedd	-0.017547065
164	0xbc0c338e	-0.0085572135
165	0xbc8a91e8	-0.016915277
166	0xba349caf	-0.0006889803
167	0x3ab03fcc	0.0013446747
168	0xbcb27054	-0.021782078
169	0x3aab1d91	0.0013055076
170	0xbc1ca2c5	-0.009560292
171	0x3c57aac6	0.013163274
172	0x3c8cfec0	0.017211318
173	0xbcda2b01	-0.026631834
174	0xbbbe1199	-0.0058004376
175	0xbb6411c9	-0.003480064
176	0xbc620446	-0.013794964
177	0xbc05a35d	-0.008156625
178	0xb9793faa	-0.00023770207
179	0xbc548e63	-0.012973401
180	0x3d1f9884	0.03896381
181	0xbc64fd7b	-0.01397645
182	0x3c42b6f8	0.011884443
183	0xbc6defcf	-0.014522507
184	0x3b0a540f	0.0021107232
185	0xbb87c6bd	-0.0041435645
186	0xbc0ab61f	-0.008466273
187	0x3c611124	0.013736997
188	0x3c69b312	0.014263885
189	0x3cb42192	0.021988664
190	0x3be8848a	0.007095878
191	0xbc9c54e1	-0.019083442
192	0xbd068345	-0.032840032
193	0x3ca26ecd	0.019828225
194	0x3bba9dbb	0.0056950725
195	0xbc8e0657	-0.017337007
196	0x3bc4b43d	0.0060029314
197	0x3be2d9e9	0.0069229496
198	0xbd289f78	-0.041167706
199	0x3d056947	0.032571103
200	0xbcb852cf	-0.022500424
201	0xbd8429f4	-0.064533144
202	0x3cd8a33b	0.026445022
203	0xbce427a1	-0.027850928
204	0xbd2a3cb2	-0.04156179
205	0x3a06ea68	0.00051466236
206	0xbc3e9cc2	-0.011634054
207	0xbc38d870	-0.0112820715
208	0x3c72dd4e	0.014823271
209	0x3c58fa5b	0.013243283
210	0xbc263836	-0.010145238
211	0xbc800fba	-0.015632499
212	0xba825765	-0.0009944258
213	0xbd964906	-0.07338147
214	0x3d226aae	0.03965252
215	0xbd10dc1a	-0.035366155
216	0x3ba887be	0.005143135
217	0xbcc80faa	-0.024421532
218	0xbb2a3712	-0.0025972766
219	0xbd3d8137	-0.046265807
220	0xbc0cb6a4	-0.008588467
221	0x3ada4f6b	0.0016655748
222	0x3cd6906c	0.026191913
223	0xbd0845f4	-0.033269837
224	0x3bbe945c	0.0058160257
225	0xba82071f	-0.0009920335
226	0xbafe44be	-0.0019399149
227	0x3d91c1c0	0.07117033
228	0x3d22292b	0.039590042
229	0x3b158fdf	0.002282135
230	0x3d23f48c	0.04002814
231	0x3c1ba3fb	0.009499545
232	0xbd6b9a47	-0.057520177
233	0xbd57554f	-0.05257159
234	0x3c253ad8	0.01008483
235	0x3c094ea3	0.008380565
236	0x3ac2669f	0.0014831609
237	0x3d7b285b	0.061317783
238	0xbd6f5889	-0.058434043
239	0x3c38973b	0.011266525
240	0x3bc3af79	0.0059718457
241	0x3d0110e7	0.03151026
242	0xbbf8c587	-0.0075919065
243	0x3d55a8c7	0.05216291
244	0x3c9e3323	0.019311493
245	0x3c5f1b1c	0.013617303
246	0xbc681674	-0.0141655095
247	0xbc6027d0	-0.013681367
248	0x3b4c1b5a	0.0031144232
249	0xbca79b2a	-0.02045973
250	0x3c225f09	0.009910353
251	0x3d6b90fc	0.057511315
252	0xbc2a29a7	-0.010385907
253	0x3cb9214f	0.02259889
254	0x3d1f6e8c	0.038923785
255	0x3c7211ed	0.014774782
